sy8_img/model/best.pth (torch, 180707 bytes, 10 tensors)

conv1.weight f4 [6, 1, 5, 5]
000000 83 54 57 3d 8c 7d b7 3e 11 03 ad 3e a8 7c f9 3e
       0.05257083 0.35837972 0.33791402 0.48727918
000010 96 c3 09 be c4 17 75 3e e0 b8 fd 3e c0 3e 5e 3f
       -0.13453516 0.23934847 0.4955511 0.868145
000020 0d 7c 40 3f c5 7c f1 bd da f9 09 3f dd 44 4c 3f
       0.75189286 -0.11791376 0.5389687 0.7979258
000030 8d 2b 7c 3f 09 ac 19 3f db b0 1b 3e 64 b1 47 3e
       0.98503953 0.6002813 0.15204184 0.19501263
000040 0a 1a 2e 3f c0 bd 0c 3f a7 5f 39 3e 8f 4d 58 3c
       0.6800848 0.54977036 0.18102895 0.013202085
000050 48 cc 6d be 23 1d 52 3c 86 84 4b bd 0b 1e a5 3d
       -0.23222458 0.01282433 -0.04968693 0.08062371
000060 c3 c4 6f be d8 fa 28 be a2 08 fb bd 83 fc 2e be
       -0.23414902 -0.1650194 -0.12257506 -0.17088513
000070 97 f4 bb bd 54 f9 ca be 15 16 02 3e 3d e2 f7 bd
       -0.09177511 -0.39643347 0.12703736 -0.121036984
000080 bb 2b 8f 3e ab 8a 78 3d 37 ca 51 be 17 4c 5c 3e
       0.2796305 0.06067912 -0.20487295 0.21513401
000090 aa 11 9e 3e f7 e9 04 3f 5b b2 81 3e 19 db 73 bd
       0.30872852 0.519195 0.25331387 -0.05953512
0000a0 9d 00 6b 3e 9f 17 aa 3e 1d 0f 02 3f 36 2e ee 3e
       0.22949453 0.33221146 0.5080431 0.4651963
0000b0 5f 63 3e 3e 18 01 32 3d 3c ea d7 3e f3 c0 a7 3e
       0.18592595 0.043458074 0.42170894 0.32764396
0000c0 92 a3 89 3e af bd ab bd fc 42 a5 be 4c 72 27 3d
       0.26882607 -0.08385789 -0.32277668 0.040880486
0000d0 a4 9a f8 3d 41 b0 c5 3e 0f 69 7b 3d fd 38 de 3c
       0.1213887 0.38611034 0.06137949 0.027126784
0000e0 5a 6b 93 3e d6 30 a5 3e 6b c4 8f 3e c2 f4 a4 be
       0.2879284 0.3226382 0.28079543 -0.32217985
0000f0 e9 9d e7 3d 75 0c 4b 3e f1 f5 c8 3e 8d 4f 6e bd
       0.11309416 0.1982897 0.39250138 -0.058181334
000100 bf 5a 6d be 9b 71 3f 3e 14 5f 00 3f 0f 9b e0 3d
       -0.23179148 0.18695681 0.5014508 0.10967075
000110 28 1b 56 be e3 df ca be f5 32 e9 3e 4f e7 b7 3e
       -0.20908797 -0.39623937 0.4554669 0.35918662
000120 06 f9 a4 3e dc 4b 94 be 9c c1 d0 be 0b a5 90 be
       0.3222124 -0.28964126 -0.40772712 -0.28250918
000130 6b 37 74 be 2b 4f d2 3d 30 36 4a 3e e5 a5 96 3e
       -0.23849265 0.10269006 0.19747233 0.29423442
000140 96 b5 6a be cc 0c 2d be de 98 6f 3e cf 1c e7 3d
       -0.22920832 -0.16899413 0.23398158 0.11284792
000150 19 1e 7b 3e 11 16 31 be 77 c0 06 3e b7 8f e5 3c
       0.245232 -0.17293574 0.13159357 0.02802263
000160 35 63 e2 3d 1b 58 18 3e 96 6b 38 bd 4d ec a8 bb
       0.110540785 0.1487736 -0.045024477 -0.0051551224
000170 4a d4 8b 3e 98 61 8f 3e d1 d3 fa bd 95 67 05 be
       0.273104 0.28004146 -0.12247432 -0.13027795
000180 41 fa 80 3e 91 34 40 3d b9 2e 2a 3c 59 ac 49 be
       0.2519093 0.04692513 0.010387116 -0.19694652
000190 ab 7b 85 be df 48 0e be 31 6f 3e be f1 6f 90 be
       -0.26070914 -0.13894986 -0.18597104 -0.28210405
0001a0 36 d8 19 be b9 e8 94 be c9 b8 b6 be fe e7 83 be
       -0.15023884 -0.29083803 -0.35687855 -0.25762933
0001b0 2e 8e a0 be fa ac 99 be 88 10 d5 3c 18 ef 25 be
       -0.31358474 -0.30014783 0.02600886 -0.16204488
0001c0 35 03 c4 bd 7c 7a a8 be c0 eb 9d be 9a c1 53 be
       -0.09570924 -0.32905948 -0.30843925 -0.20679322
0001d0 bb cf 0f be af a6 a7 be 0d ad 6c be 40 e7 94 be
       -0.14044087 -0.32744357 -0.23112889 -0.2908268
0001e0 ad 16 db bd 30 03 70 be 74 21 3a be 05 67 9d be
       -0.106976844 -0.23438716 -0.18176824 -0.3074266
0001f0 c4 f6 99 be 35 11 13 be 61 a1 f8 bd 07 b8 44 be
       -0.3007108 -0.14362033 -0.121401556 -0.19210826
000200 2e d3 41 3e ee 5a d1 3b 4b 08 14 3e 5e a5 70 3c
       0.18928215 0.0063890135 0.14456289 0.014687864
000210 a1 f8 2c be ee 77 5a 3e b4 fe 49 3c 46 19 dd bd
       -0.1689172 0.21334812 0.012328792 -0.10795836
000220 12 1c 4e be 28 fc 1f be 4f 4b 29 3e 8a 52 5e 3c
       -0.20127895 -0.15623534 0.16532634 0.0135694835
000230 eb ea cb 3c 1c 49 45 be d2 13 50 3e 7d fc 71 bd
       0.024892291 -0.1926617 0.20320061 -0.059078682
000240 98 fa a0 bc b4 c3 b3 bb dd 70 c4 3d ce dd 60 3e
       -0.019650742 -0.005485976 0.095918395 0.21959612
000250 64 b3 74 3e c3 59 32 be
       0.23896557 -0.17417054

conv1.bias f4 [6]
000000 0e 90 4b 3f 8c f0 8a 3e 71 f5 8a bd b4 ac ad bd
       0.79516685 0.27136648 -0.067850955 -0.08480206
000010 f2 3c ec 3e 02 bb fe bd
       0.46140248 -0.12438013

conv2.weight f4 [16, 6, 5, 5]
000000 d6 5c 87 3d d4 de c5 3c 71 3b 48 bd 8f 46 00 3d
       0.06609504 0.024154104 -0.048884813 0.03131729
000010 33 2e 93 3e 00 c5 9b 3d 6e be 8c 3b fa e6 ae be
       0.28746185 0.07605934 0.004295162 -0.34160596
000020 bb a2 3d be 56 a1 71 3d f9 28 26 3d 2f 41 45 3e
       -0.18519108 0.058991753 0.04056642 0.19263147
000030 34 bf fd bd fe 88 9d be 10 d3 84 bd 6a 47 69 3d
       -0.12389985 -0.3076858 -0.064855695 0.05695287
000040 59 d8 8a 3e 82 dd 9e 3d 8e a2 50 be 14 7c 07 be
       0.27118185 0.07757093 -0.2037451 -0.13230926
000050 57 92 ec bd 05 1b 13 3e 7f 83 29 3e 68 7f 0b be
       -0.115513496 0.14365776 0.16554068 -0.1362282
000060 64 0a a0 bc f5 39 66 3d f4 d7 00 bc df b2 15 be
       -0.019536205 0.056207616 -0.007863987 -0.14619015
000070 7c 5a b7 bb 88 b6 ea 3d c1 75 86 3d 4d b8 9c 3c
       -0.0055955034 0.11460596 0.065654285 0.01913085
000080 2c 39 0d be e1 d1 fd bd ce f6 26 bc 65 5e c8 3c
       -0.1379134 -0.12393547 -0.010190679 0.024459073
000090 66 8d 32 3e db 54 bc 3d 15 54 e9 bd 06 a8 97 bd
       0.17436752 0.091958724 -0.113929905 -0.07405095
0000a0 44 73 6a bb 64 ba b5 3d 2d 11 ca 3d c6 18 9a bc
       -0.003577427 0.08873442 0.09866557 -0.018810641
0000b0 a2 cf 01 be 0c 60 c7 bd 8a 7c 7e 3d ab 55 1e 3d
       -0.12676862 -0.09735116 0.06213049 0.038655918
0000c0 9c f4 98 bc 4f d1 dd bc 04 7d 3b bd 79 3c ce bc
       -0.018671326 -0.027077345 -0.04577352 -0.02517532
0000d0 8a e2 6e bd 78 7a 2a bd 4e d2 f1 3c 14 56 5f ba
       -0.058321513 -0.0416207 0.029519226 -0.00085196015
0000e0 cf b7 71 bd 62 4a 98 bd 6c d8 cd bd 9f 50 11 3d
       -0.059013184 -0.074360624 -0.10051045 0.035477277
0000f0 3e ca 42 bd 0d d6 06 bd 6e 60 51 3d eb 06 80 bd
       -0.047556154 -0.03291898 0.051117353 -0.062513195
000100 76 09 b5 bd c3 38 c6 3c 5f 2b cb bc 57 c8 eb 3c
       -0.08839695 0.024196988 -0.024800954 0.028782053
000110 96 00 c0 bd 27 6f c8 3c 41 05 14 3d 39 7e 6c 3d
       -0.09375112 0.024467064 0.036137823 0.057737563
000120 e5 be de bc 52 17 f0 bd 29 60 9e bd 59 b2 57 3d
       -0.027190635 -0.11723198 -0.07733185 0.05266032
000130 b1 d3 0c 3d ca ac 61 3d f2 e2 0d 3d 6b 1b cd 3c
       0.034381572 0.055096425 0.03464026 0.025037488
000140 0a 3e 9c bc 33 50 e4 bd 90 74 f8 bd d9 03 b4 bd
       -0.019072551 -0.11148109 -0.121316075 -0.087897964
000150 05 55 51 3d 74 d2 30 bd 29 1f 83 bd a2 11 c9 bd
       0.05110647 -0.043169454 -0.06402428 -0.09817816
000160 c4 c1 b9 bc de 33 2e bd f2 f4 a4 bc 15 0a fa 3c
       -0.022675402 -0.042529933 -0.02013633 0.030522386
000170 e1 29 4b bd 18 ca 09 3d ed 6c 9f bc db 33 88 bc
       -0.049600486 0.033639997 -0.01946112 -0.01662629
000180 21 56 13 3d b3 75 0a bd e6 46 28 bd 88 41 83 bd
       0.03597081 -0.033803653 -0.04108324 -0.064089835
000190 b2 aa 1c 3d ad 19 d8 bc f2 bf c5 3d a5 58 94 3d
       0.038248725 -0.02637943 0.09655751 0.0724347
0001a0 e9 04 22 3d 49 28 86 bd 6e e1 e0 3d df e5 8d 3d
       0.039555464 -0.065506525 0.10980497 0.0692861
0001b0 07 79 0c 3e 12 f5 f3 3d e7 cc a6 bc bd 51 d1 3c
       0.13718043 0.11911978 -0.020361377 0.025551671
0001c0 ca 83 89 3d 8d 5a 4b 3d de 08 02 3e 09 d6 ad bd
       0.0671459 0.049646903 0.12698695 -0.084880896
0001d0 ac d0 1f 3d 0d 68 bd 3d 86 ef 22 3e 8c e3 7e 3d
       0.039017364 0.09248362 0.15911683 0.062228724
0001e0 13 48 7f bd 6d a3 64 bb d1 9a 4d 3d 4a 82 f0 bc
       -0.062324595 -0.0034887448 0.050196473 -0.029359002
0001f0 4f e2 1c 3d 13 e2 41 bd 98 49 80 bc 24 b0 7a bd
       0.038301762 -0.04733474 -0.015660092 -0.061203137
000200 9f db 5d bd 74 0b f5 bc 8f 5c a3 bd 38 f4 3b 3d
       -0.054164525 -0.029912688 -0.079766385 0.045887202
000210 e7 f0 42 3d fd a9 f6 bc 86 55 82 bc 3d 1c 13 bd
       0.047593024 -0.030110354 -0.015909921 -0.035915602
000220 b4 b2 bd bd 9c 64 bb bd 60 ff a7 3c 14 27 56 bd
       -0.092626005 -0.09150049 0.020507514 -0.05228336
000230 94 ca 5f bd 30 61 76 bc ba 4c 22 bd e0 60 17 bd
       -0.054636553 -0.01503782 -0.039623953 -0.03695762
000240 a7 67 3a ba 45 f7 2d bc ae a4 a5 bc d2 2a 41 bd
       -0.00071107823 -0.010618036 -0.020220127 -0.047159977
000250 ce 25 96 bd ee 1a 9e 3d 5c 51 6f 3b 1e 10 22 bc
       -0.073314294 0.0771998 0.0036517 -0.009891538
000260 d2 f0 af bd 46 8c 09 3c 5f b4 1d 3e b1 1e 82 3d
       -0.08590855 0.00839526 0.15400837 0.0635351
000270 cc 7e 01 be c1 b2 25 bd 85 0c d0 3d ff 71 b4 3d
       -0.12646025 -0.040453676 0.10158638 0.088108055
000280 01 a1 8c 3d 8d 07 19 3d 49 87 86 bd d0 8d 1b 3d
       0.068666466 0.037360717 -0.06568772 0.03797704
000290 06 05 43 bd 10 01 35 3d 4a 22 5d 3d 67 72 c9 3c
       -0.047612213 0.044190466 0.05398778 0.024590684
0002a0 5e 95 a7 bb 47 c6 5e bd a4 45 16 bd 10 88 ac bd
       -0.0051142415 -0.05438831 -0.03668751 -0.08424389
0002b0 8b 93 4c bc 35 f4 d6 3d ef 16 03 3e 82 59 21 3d
       -0.012486349 0.104957975 0.12801717 0.039392002
0002c0 39 5a ac bd 92 13 d2 bd 4f d7 32 3d 77 4a e2 bc
       -0.08415646 -0.10257639 0.043662366 -0.027623398
0002d0 58 ec d0 bb 76 12 1f 3c 8d ed 99 bd 9b 50 25 bc
       -0.0063758306 0.009708991 -0.07516012 -0.010090019
0002e0 b1 dc ca bb ae 83 01 3c 02 09 51 bd b8 2f c6 bd
       -0.0061908592 0.00790493 -0.05103398 -0.096770704
0002f0 62 63 7c bd bb d1 66 bd 24 cf cb 3d 5b ca 2d bd
       -0.061618216 -0.05635236 0.09951618 -0.04242931
000300 e4 44 48 bd e2 10 7d 3d 18 89 24 3d 0b a5 14 3d
       -0.048893824 0.06178368 0.040169805 0.03629021
000310 8a 24 84 3d ab d4 9e 3d 50 22 8e bc a6 11 46 3d
       0.06452282 0.07755407 -0.017350346 0.048356675
000320 30 79 6d 3d 22 31 e6 ba 6a 67 80 bd 8d 6d 9d 3d
       0.0579769 -0.001756225 -0.06269725 0.07686911
000330 0d c6 17 bc d7 b3 2e bd dd f9 a8 bd 4c a1 82 bc
       -0.009263528 -0.042651977 -0.08250783 -0.015946053
000340 cc b5 4f 3d 53 5c 22 3d b3 75 a8 3c 27 a3 89 bd
       0.050710484 0.03963883 0.020563936 -0.06720572
000350 27 c9 b4 bd 5d 0f 93 3c 3b 3d a3 3d 3b 3f 78 3d
       -0.08827429 0.017951662 0.07970663 0.060607176
000360 58 fc 59 bd 91 c5 be bc 6c d9 2c bd 51 e6 d2 bc
       -0.05321917 -0.023287566 -0.042199537 -0.025744589
000370 15 ad 9f 3c 61 c7 1b 3d 26 41 89 3d 94 15 35 bd
       0.019491712 0.03803194 0.06701879 -0.04421003
000380 3d 25 9b 3d c3 a2 75 bd da 42 b9 3c 27 4e 83 3d
       0.07575462 -0.059969675 0.022614885 0.06411391
000390 15 61 f5 3b 17 54 c2 3d c5 0c a3 bd d4 75 3f bd
       0.0074883797 0.09488695 -0.0796142 -0.04674323
0003a0 dc ce 5a 3d 99 cf 3a 3c 73 a9 59 bb dc c3 10 bd
       0.053419933 0.011402034 -0.0033212572 -0.035343036
0003b0 ae ef 4e 3d f2 ff 5a 3d db 18 42 3d 7a c4 54 bd
       0.050521545 0.053466745 0.047386985 -0.051945187
0003c0 26 dc 81 bd f6 6f 01 3c 8f c3 1d 3d d1 a2 d6 bc
       -0.06340818 0.007900229 0.038516577 -0.026200684
0003d0 02 45 e2 bc df 6b 56 3d 84 82 3b 3c 8d 96 d6 3c
       -0.027620796 0.052348968 0.011444692 0.026194835
0003e0 dc 1d 0b bc c6 c1 91 bd 50 d5 c6 bd 69 56 24 bd
       -0.008491006 -0.071170375 -0.09708655 -0.04012147
0003f0 39 1c 4e bd 42 96 02 3c 50 59 02 bd b1 21 2e bd
       -0.050319884 0.007970395 -0.031823456 -0.0425126

conv2.bias f4 [16]
000000 f8 b6 4b 3c be 9a 01 3d ca c3 81 3d b6 be ac 3c
       0.01243376 0.031641714 0.06336172 0.021087032
000010 a3 6c 94 bd 92 bc 94 3d 76 93 83 3d 0a 45 af 3d
       -0.07247283 0.072625294 0.0642461 0.0855809
000020 b5 5b 7b bc 51 44 e2 3c 45 6b e3 3c 3d 2a d1 3d
       -0.015341689 0.027620466 0.027761111 0.102131344
000030 e4 bf 9b 3c 71 87 b6 3d 3d ac e6 3c b7 b1 5f 3d
       0.019012399 0.08912552 0.028158301 0.05461284

fc1.weight f4 [120, 256]
000000 c8 bb 57 3c 8d 8d 92 3d cc 74 51 3d cd 8d 88 bd
       0.013167329 0.07155905 0.051136777 -0.06667671
000010 3c 71 a5 bb dc 98 34 bd 90 15 99 bd cd 81 62 bc
       -0.005048899 -0.04409109 -0.07474816 -0.013824892
000020 f8 b8 b3 bb ed 45 a2 3c 70 43 c7 3c 09 ab 15 bd
       -0.0054846965 0.019808734 0.024324149 -0.036540065
000030 21 ab e3 bc 54 d4 36 bb 00 3a 9e 3b f2 78 c6 bc
       -0.027791562 -0.0027897554 0.0048286915 -0.024227593
000040 07 dd 76 3d 0c cd 12 bd ff 04 2c bd bf 82 85 39
       0.06026938 -0.03584008 -0.041996952 0.0002546515
000050 ca 39 5f 3d 9b f8 d7 3c 71 de 9a 3c 7b 9f a4 3c
       0.05449847 0.026363662 0.018904896 0.020095577
000060 40 a3 b0 3d 60 68 b1 3c ba 30 35 3d ca 31 65 bc
       0.086248875 0.021656215 0.044235922 -0.013988921
000070 a1 ee 5d bd 1d 23 99 bc 70 51 ba 3c 71 f4 2e 3d
       -0.054182652 -0.018693501 0.02274391 0.042713586
000080 39 a3 ac bc 56 6a 3c 3d a9 fc bc 3c 22 37 80 bb
       -0.021073924 0.045999847 0.023069697 -0.0039128223
000090 f4 6e 96 3b 6c 1c f3 bb 0f 73 09 3d ce 58 5d bc
       0.0045908634 -0.0074191596 0.033556994 -0.013509942
0000a0 10 56 33 3d 86 d7 ad bd 96 0b 97 bd e1 69 1e bb
       0.043783247 -0.084883735 -0.07375257 -0.0024171995
0000b0 16 01 b0 3d 39 e7 5f 3d 9d 13 1e 3c a5 59 60 bd
       0.08593957 0.05466387 0.009648231 -0.05477299
0000c0 ca 92 0b b9 79 2e 62 bd 87 73 60 bd 03 1c 17 3c
       -0.00013310756 -0.0552201 -0.054797675 0.009222987
0000d0 85 33 36 bd ef 0e 9b 3d ea ba 50 bc 4a 8a 08 3d
       -0.044482727 0.07571208 -0.012739876 0.033335008
0000e0 b5 b4 53 3d b5 a7 c7 bd 98 38 3c 3d 42 75 e6 bb
       0.051686008 -0.097487845 0.04595241 -0.007033021
0000f0 d5 df a1 3c d8 cf ca 3c a9 05 05 bd 16 55 1b bd
       0.019760052 0.02475731 -0.0324761 -0.03792294
000100 13 72 5b 3d bf 6f 3c 3d 03 fc c8 bc fe ba 06 3d
       0.053575587 0.046005007 -0.024534231 0.032893173
000110 25 6d 33 3d 29 0b fe 3c e2 08 c5 3d a8 97 19 3d
       0.04380526 0.031011181 0.09620835 0.037498146
000120 e4 2e cb bb 44 48 c8 3c 41 c7 9b bc 7c e8 06 bd
       -0.006200658 0.024448521 -0.01901591 -0.032936558
000130 a2 9a 80 3d 2d 70 50 bc 21 13 59 bc fd b2 4e bd
       0.06279494 -0.012722057 -0.01324919 -0.050463665
000140 46 0b 77 3c f1 88 a7 bc 57 ef 90 bd bd 14 70 bd
       0.015078371 -0.020451041 -0.070769005 -0.058613528
000150 9f 92 64 3c d6 eb 1c bd 8e dd 56 bb 9a 95 96 bc
       0.013950973 -0.03831085 -0.0032785865 -0.018381882
000160 ec 2a b7 bc ab ad 9b 3b 6c 34 a7 bd c4 08 89 bd
       -0.022359334 0.0047509274 -0.081642956 -0.06691125
000170 19 f1 d4 ba 6b 16 23 bd e7 da 42 bd f6 35 e8 3c
       -0.0016246169 -0.0398163 -0.047572043 0.028346043
000180 5b 06 a7 3c 7c 65 64 3c b6 2e 5d 3c be f1 80 3d
       0.020388773 0.013940211 0.013499906 0.06296109
000190 9b 0f 26 bd c7 45 18 bd 88 d9 8b bd 45 c2 c9 bb
       -0.040542226 -0.03717592 -0.068286 -0.006157192
0001a0 ba 82 d7 bb ff 63 bb bd aa 03 df bc fa 9b c3 bd
       -0.006576863 -0.09149932 -0.027223427 -0.095512345
0001b0 b8 08 9b 3c b8 ad 63 bd b0 d9 22 bc 75 7c 52 3c
       0.018925056 -0.055585593 -0.009939596 0.012847056
0001c0 be 9e 04 bd 7b 6a ab 3d 80 4e 0c bd 7c 93 18 3c
       -0.03237795 0.08369919 -0.03425455 0.009312507
0001d0 84 59 5c bd 4f 04 9d 3d c4 65 6f 3d 2c 4a d8 3d
       -0.053796306 0.076668374 0.05844666 0.10561022
0001e0 7d f8 ad 3c 64 7f 99 bd dc 0f 9c bc 2d dd 08 bd
       0.021236653 -0.07495001 -0.019050531 -0.033414055
0001f0 72 97 0e 3c 74 d2 08 bd ec dc 97 bd ea 32 0d bd
       0.0087031 -0.03340383 -0.074151844 -0.034472384
000200 b2 f1 65 3d f0 a1 9b 3c bd eb 33 bd c1 16 2a 3d
       0.0561387 0.018998116 -0.04392599 0.041525606
000210 78 4c 49 bc e6 f5 c1 bc 1c 63 a1 bc 04 80 46 bd
       -0.012286298 -0.023676824 -0.01970058 -0.04846193
000220 01 54 12 3d 6b 03 64 bd 15 50 ac 3c 94 72 f5 bc
       0.035724644 -0.055667322 0.02103428 -0.029961862
000230 7e 58 c4 3c 3a de 40 3d 5c 47 84 3d 2a 73 14 3d
       0.023967978 0.04708693 0.06458923 0.03624264
000240 27 d6 93 3d 17 4c ac 3d db c7 18 3d ba d2 fd 3c
       0.07218581 0.084129505 0.037299972 0.030984271
000250 9f db 05 3d f2 01 4a 3c 80 a4 63 3d 40 e6 57 bd
       0.03268015 0.012329565 0.0555768 -0.052709818
000260 b4 fc d7 bc 62 43 80 bd d0 29 cc bc 88 49 9b bd
       -0.026365615 -0.06262852 -0.024922282 -0.07582384
000270 95 5d c2 bc 8b e8 8b bc 73 67 3f 3d 25 86 09 3c
       -0.023726264 -0.017078659 0.046729516 0.008393799
000280 99 25 d7 bc f0 8f b4 3c 41 49 5b 3c df 4e b6 bd
       -0.026263045 0.022041291 0.013384164 -0.08901762
000290 15 ae aa 3d f2 64 ee 3d fb 87 3d 3d 82 e0 32 bc
       0.08333985 0.116403475 0.04627226 -0.010917785
0002a0 65 05 b9 3c 5c 64 05 3c 74 45 e0 bc 75 cb f7 3c
       0.02258558 0.008141603 -0.027376868 0.030248383
0002b0 28 1d b8 3c 67 07 8d 3d ff 80 81 bd e6 c6 8e 3c
       0.02247484 0.068861775 -0.06323432 0.017428827
0002c0 93 70 c0 bc 45 aa 87 3d 72 71 7d 3d f1 55 6f 3b
       -0.02349118 0.06624273 0.061875768 0.003651973
0002d0 f0 f2 62 3d 90 4e 9d 3d 03 9e 29 3d 93 b5 05 bd
       0.055407465 0.07681 0.041410457 -0.032643866
0002e0 f4 c5 a1 3d 06 92 37 3b 01 90 d3 3a e7 18 53 bd
       0.07899085 0.002801062 0.0016140939 -0.05153742
0002f0 23 e5 75 3d 44 3a be 3d 02 0b 76 bd b3 74 9b 3d
       0.060032975 0.09288457 -0.06006909 0.07590618
000300 04 66 ed bc bc e2 00 bd f4 85 33 bd 85 29 9a 3c
       -0.028979309 -0.03146623 -0.04382892 0.018818626
000310 4f c2 58 bd f3 90 2c bd b5 ee 2c bd 72 22 26 3d
       -0.052919682 -0.04213042 -0.042219836 0.040560193
000320 b1 7a 85 bd 6a 1a 78 bd 0f 9c db bc fd 02 36 3a
       -0.06517542 -0.060572065 -0.026807813 0.00069431943
000330 fe 0d 7d bd 89 3d 28 bc ee ad 3e bd 82 5e 65 bd
       -0.061780922 -0.010268577 -0.04655259 -0.055998333
000340 66 95 15 3b af 18 ca bc cf e2 92 3d 5b 27 b9 3a
       0.0022824644 -0.024669973 0.071721666 0.0014126109
000350 a1 0c 17 3c 8d d5 6c bd a8 2b 18 be d8 1d 0b 3d
       0.00921932 -0.057820845 -0.14860404 0.033964008
000360 42 68 98 bd 12 17 f8 bd ff 4d b8 bd 9c 2c 08 bd
       -0.074417606 -0.12113775 -0.089992516 -0.033245668
000370 80 0a 8d bc 7e e8 2f bc 8d 9c 9e 3d 91 2a ce 3a
       -0.01721692 -0.010736583 0.077447034 0.0015729239
000380 26 2d 95 3d d0 82 93 3d 06 92 86 3d 48 26 01 3d
       0.07284002 0.07202685 0.065708205 0.03153065
000390 45 94 3c 3d 84 a4 94 3d bb 57 1c 3d 7d 1e 61 bd
       0.04603984 0.07257941 0.038169604 -0.054960717
0003a0 1b 90 78 bc 21 27 b1 bd 4e f5 f4 bc 71 87 62 bd
       -0.015171076 -0.08650041 -0.029902127 -0.05530495
0003b0 44 9d 28 3d e9 75 83 ba 42 a4 5e bb ca 4f 24 bd
       0.041165605 -0.0010029647 -0.0033972417 -0.040115155
0003c0 bd e8 4f bd 0d 45 58 3c e8 5a 67 bd bd c0 70 bd
       -0.050759066 0.013200057 -0.05648318 -0.05877756
0003d0 aa 30 87 3d 19 00 19 3d 0a 83 31 bd bf 89 6f 3d
       0.06601079 0.03735361 -0.04333786 0.058480974
0003e0 f5 ec 19 3d d2 3a a9 3c 73 38 64 3c 40 de 4d 3c
       0.037579495 0.02065793 0.013929474 0.012565196
0003f0 f1 88 4d bd 8d d6 06 3d 10 5a 00 bc 9d 8f 14 bd
       -0.050179426 0.032919455 -0.007833973 -0.036269773

fc1.bias f4 [120]
000000 6c 63 05 bc 7c f4 87 bc 8a 1d 31 3d a6 e1 6d 3d
       -0.00814138 -0.016596071 0.04324106 0.058076523
000010 33 f4 aa 3d c3 45 7c 3d c6 d0 bc 38 a2 aa 04 bd
       0.083473586 0.061589967 9.003426e-05 -0.03238929
000020 7b 06 48 3d 7d 0c 36 3d 58 95 17 bc eb ff 36 3d
       0.048834305 0.044445504 -0.009251915 0.044677656
000030 12 a5 c3 bc d8 2a 48 bc 42 a0 78 3d c1 09 86 3d
       -0.023882423 -0.012217246 0.06069971 0.06544829
000040 a7 87 5a bd 57 49 06 3d b1 07 66 3d f3 38 80 3c
       -0.053352024 0.032784786 0.05615968 0.015652156
000050 db 7f 91 3c 99 73 d7 3c 6e 83 21 3c b3 aa 36 3d
       0.017761162 0.026300238 0.009857995 0.044596385
000060 70 7b 29 bd 4d a9 14 3b c4 47 a8 bc e9 80 5f 3d
       -0.041377485 0.002268392 -0.020542033 0.054566298
000070 5f a9 2c bd f9 95 f4 3c 08 81 df bc 70 24 73 3d
       -0.042153712 0.029856669 -0.027283207 0.05936092
000080 e6 ea 28 bc 17 f2 0b 3c 2e 34 02 3d 56 82 0f 3d
       -0.01030991 0.008541605 0.031788044 0.035036407
000090 2c ee ca 3c 00 41 14 3d bf 8f be bb 88 3a 0a bd
       0.024771772 0.0361948 -0.0058154757 -0.033747226
0000a0 b4 40 dd 3c d5 bc 78 bd 8e 49 13 3d f8 7b 4e 3d
       0.027008392 -0.06072696 0.03595882 0.050411195
0000b0 b2 5f 94 3d 97 5c 22 3d 40 e9 04 bd 7a d1 3b bd
       0.07244815 0.03963908 -0.032449007 -0.04585407
0000c0 fb 82 c1 bc d3 23 03 bd 93 fe 6c ba df c4 16 3d
       -0.023622027 -0.032016587 -0.000904062 0.036808845
0000d0 3b 3e 41 3d 02 60 89 bd 25 95 d7 3c b0 71 00 bd
       0.04717849 -0.06707765 0.026316235 -0.03135842
0000e0 0f 8e b5 bc 40 c2 37 bd 1c e0 9a bc 37 7a 85 bc
       -0.022162465 -0.044862986 -0.018905692 -0.016293628
0000f0 1e 6e ab bc f6 36 4f 3d 02 0a c6 bb d3 f6 b9 3c
       -0.020926531 0.050589524 -0.0060436735 0.022700703
000100 05 03 23 bc 01 38 5e 3d 30 f5 2d bd 82 4a b0 ba
       -0.00994945 0.05425263 -0.042470157 -0.001344994
000110 fe 02 04 bd 7e 99 0e bd 77 f7 cb bc 89 6f 49 bd
       -0.032229416 -0.03481435 -0.024898274 -0.049178634
000120 5b 0b 9e ba 0a 4c 86 bd 8a 29 e8 3a 69 53 88 3c
       -0.0012057828 -0.06557472 0.0017712575 0.016641336
000130 8c 34 54 3d 87 4a 4c bd 36 51 3e bb 75 87 79 3c
       0.051807925 -0.049875762 -0.0029040105 0.015230049
000140 96 5e 71 bd e6 07 20 3d f1 d4 f0 3c 30 10 c3 3c
       -0.058928095 0.039070033 0.029398413 0.02381143
000150 1d bd fb bb b5 82 67 3c 8c 09 fe 3c af 51 e9 bc
       -0.007682456 0.014130284 0.031010412 -0.028481333
000160 d5 7b bf 3c 28 f7 b5 3c 13 13 8a bd f5 3d d8 bc
       0.023374477 0.02221258 -0.06741919 -0.02639673
000170 db e0 12 bd 9c 93 ed bc c7 e1 3f 3d 32 7f b5 bc
       -0.03585897 -0.02900105 0.046846177 -0.022155378
000180 73 bd 9b bc 16 51 6a bd 2f dd 57 3d 92 f7 e7 3a
       -0.019011235 -0.057206236 0.05270117 0.0017697683
000190 27 76 4b 3d eb 54 6b 3d 0c 22 e6 bc ac 21 d1 3c
       0.049673226 0.05745403 -0.028092407 0.025528751
0001a0 5d 2f 2d 3d e6 7b 64 3d e9 97 6d 3a 1f 9c 9b bc
       0.042281497 0.05578222 0.0009063469 -0.018995343
0001b0 19 6a 98 3d 40 ab e2 3c 2f f1 09 bd 82 6d d0 3c
       0.074421115 0.027669549 -0.033677276 0.025442842
0001c0 fc 80 66 bd 36 3a 4a 3c fe d5 17 3d 65 df b9 bb
       -0.056275353 0.01234298 0.037069313 -0.0056723827
0001d0 46 97 e3 bc 06 eb 65 3d a9 b9 d6 3a c6 1c 63 bd
       -0.027782094 0.05613234 0.0016382235 -0.055447362

fc2.weight f4 [84, 120]
000000 e4 bb e5 3d bc 9a 9e 3d de ab f8 bc 62 ad 8a 3d
       0.11217478 0.07744357 -0.03035539 0.067713514
000010 33 da 1b bd 0c 33 c7 3c 05 bd 1a bd 29 76 a9 bd
       -0.038049888 0.024316333 -0.03777792 -0.082744904
000020 15 60 8c 3c 06 d1 28 3e b1 67 19 be d6 81 f0 bd
       0.01713566 0.16485986 -0.14980961 -0.11743514
000030 3b 95 71 bc cb 31 a1 bd a0 31 c4 bc b7 41 04 3e
       -0.014745052 -0.078708254 -0.023949444 0.12915693
000040 fc 87 a7 3d 92 df 35 bd 1e 30 71 bc da b9 99 3c
       0.08180234 -0.044402666 -0.014720945 0.018765379
000050 ec 1c e6 bd a0 34 9d bd 39 c9 5e 3d 66 3d 77 bb
       -0.11235985 -0.07676053 0.05439112 -0.0037725805
000060 b3 eb 3e 3c 4a 25 48 3c 8c 6b a8 3d fe ed 5f 3d
       0.011652875 0.012215922 0.08223638 0.054670326
000070 43 d6 f7 3c b9 d1 a1 bd 8e a0 5b 3d fe b7 cd 3d
       0.030253535 -0.079013295 0.053619914 0.10044859
000080 f0 67 21 3e 8f 17 b1 bc d7 1f a6 bd 82 2f 65 3d
       0.15762305 -0.021617679 -0.08111542 0.05595351
000090 57 5b c4 bd 57 f1 cc 3d 5d 53 a4 bd cd 07 32 3d
       -0.09587734 0.100069694 -0.08023713 0.04346447
0000a0 45 e2 71 bd d2 8f b5 bd a5 7d c1 bd 03 4e 83 3d
       -0.059053678 -0.08865322 -0.09447793 0.06411364
0000b0 06 69 6c bd 2f ae b2 bc f0 06 7d bc 75 72 a2 3c
       -0.057717346 -0.021811573 -0.015443549 0.019829968
0000c0 50 83 0a be 13 0d 69 bd 83 ec 83 3d af df 38 3c
       -0.13526654 -0.056897234 0.064415954 0.011283799
0000d0 3e 54 d8 bc e8 03 d6 3d 79 5b 13 bd 97 af c1 3d
       -0.026407357 0.10449964 -0.035975907 0.09457319
0000e0 27 18 da 3d 0e 46 23 3d 94 7f d0 3c a0 68 0b 3e
       0.10649138 0.03986173 0.025451459 0.1361413
0000f0 a0 97 be bd 37 1d b9 bd fc 30 d6 3c dc 60 be bc
       -0.09306264 -0.090387754 0.026146404 -0.023239546
000100 b3 39 46 bd ed ec 95 bd b8 96 8f 3d 27 44 d3 3d
       -0.04839487 -0.07320581 0.07011169 0.103157334
000110 cf 63 73 bd c3 3f 84 3d 0e 38 3d 3d 65 48 90 ba
       -0.059421357 0.06457474 0.046196036 -0.0011007903
000120 a3 4d 5b bd b0 73 ab 3d ab a8 24 3d 4d c0 06 be
       -0.053540837 0.08371675 0.040199917 -0.13159294
000130 42 39 af 3d 72 bb 91 3d 0d b0 a0 bd e9 5d bf bd
       0.08555843 0.071158305 -0.07846079 -0.09344084
000140 17 a2 06 3d 82 4f e8 3d f0 25 a7 bc 0f bc 09 3e
       0.032869425 0.1134329 -0.020403832 0.13450645
000150 51 1d 6a bc b9 b3 2d 3d 3f cb 71 3d 65 26 df bb
       -0.014289216 0.042407725 0.05903172 -0.006809997
000160 c5 91 95 3d 32 47 37 3d 19 f7 ab 3d 42 6b 0c bd
       0.07303194 0.04474563 0.083967395 -0.034281977
000170 5e f4 4a bc dd 49 2e 3d 5d ed 7a bd 0c 6a 9d bb
       -0.012387363 0.04255091 -0.061261524 -0.0048039015
000180 06 99 27 3d 12 d6 ec bc 5a b4 07 bc fc c6 f7 bd
       0.04091742 -0.02891067 -0.008282745 -0.120985
000190 2e ea d1 bc 68 bc 9d 3d 5f ec 2c bd f1 42 b5 3c
       -0.02562436 0.07701951 -0.04221761 0.022126647
0001a0 a6 85 fb 3d dc 1f 87 3d 12 a9 43 3c b8 7c 5b bb
       0.12281351 0.065978736 0.011942165 -0.0033491086
0001b0 76 60 98 3d 53 e1 23 3d 9c 9c 05 be c0 50 23 bd
       0.074402735 0.040009808 -0.13048023 -0.03987193
0001c0 db 9b f3 3c 4b 9f 7b bc 2d 6f 54 bd 78 0c 8f bd
       0.029737404 -0.015357803 -0.051863838 -0.069848
0001d0 37 67 56 3d 82 2f 0b bd 22 d5 9c bd 86 5d a7 3c
       0.052344527 -0.033980854 -0.07657839 0.020430338
0001e0 9a 6f c8 bd 53 ed b1 3c a0 c6 07 3d f2 d6 ac bd
       -0.09786911 0.02171961 0.033148408 -0.08439435
0001f0 37 ea a7 3d da 53 f1 3d f2 da b9 3c 58 c5 90 bc
       0.0819897 0.117835715 0.02268741 -0.017672226
000200 a7 c6 a5 bd 64 ea 97 bd d0 c3 af bd af b2 61 b9
       -0.080945306 -0.07417753 -0.0858227 -0.00021524237
000210 91 e4 d6 bd cf 43 ab bd c8 ce 08 3c ea 51 77 bd
       -0.10492814 -0.08362543 0.008350082 -0.060380854
000220 11 76 df 3c 07 e3 3c 3c 27 bc ab bd 05 c9 41 bd
       0.027277978 0.011528737 -0.083854966 -0.047310848
000230 8f 33 b3 3d 2e 4d 91 3c 91 86 9c 3d 1e 32 a0 3d
       0.087500684 0.017736997 0.07642854 0.07822059
000240 99 2e 12 bd 35 a3 b1 3d 1b b9 26 bb e4 7a 3d bd
       -0.03568897 0.086737074 -0.0025439921 -0.046259776
000250 f7 50 d3 3c 68 b3 a1 bd 81 17 f9 bb 7a 48 19 be
       0.025795443 -0.07895547 -0.007601679 -0.14969054
000260 f5 af a5 3c 6c 90 36 3d 9d 5e 6d bd b7 5b ec bd
       0.020225504 0.044571325 -0.05795156 -0.11540931
000270 d2 16 8f 3d 3f b6 08 3c c6 f0 65 bc 9a 56 d8 3d
       0.069867745 0.008344232 -0.014034456 0.10563393
000280 70 24 c5 3d e6 2b 0f 3d 16 08 a9 3d 76 9a bf 3c
       0.096260905 0.034953974 0.082534954 0.023389082
000290 23 3e 32 3d 77 1a 37 3d 0d 15 71 3c d5 70 bd 3c
       0.04351629 0.044702973 0.014714492 0.023125092
0002a0 4b 44 52 bd 5b 1e 87 3d 51 91 39 3d 43 46 31 bd
       -0.05133466 0.06597587 0.0453046 -0.043279897
0002b0 40 23 3c bd 35 14 aa 3d 44 ee 0c 3d fa f3 31 bd
       -0.045932055 0.083046354 0.034406915 -0.043445565
0002c0 14 f5 57 be 1d bd e8 bb 81 c9 1c 3d e8 ac e6 3d
       -0.21089584 -0.007102622 0.038278107 0.11263448
0002d0 63 30 2a 3b 96 fa 07 bb e8 60 a5 3d 09 40 f2 3c
       0.0025968782 -0.0020748726 0.08075124 0.02957155
0002e0 6d 88 e7 3b a0 b4 6f bd 41 cd d4 3d 33 bf 84 3d
       0.007065824 -0.058521867 0.103907116 0.06481781
0002f0 71 0f e2 3c e3 2c f8 3c 8a 8b 6d bd 9d fa 8f bd
       0.027595254 0.030294841 -0.057994403 -0.070302226
000300 b7 f0 bf 3d 4b dc 1e bd a6 c8 b9 bd a8 b1 5d bd
       0.093720846 -0.038784306 -0.09071474 -0.054124504
000310 2b da f9 3d 35 04 3d bc 4b e9 97 bc 26 6f 18 be
       0.12199815 -0.011536648 -0.01854386 -0.1488615
000320 0d b3 8d bc 12 40 12 3d 57 a7 76 bd df db 8b 3d
       -0.017297292 0.035705633 -0.06021818 0.068290465
000330 16 e7 89 bd 09 eb ed bd 39 26 47 bd 66 c5 a8 3d
       -0.06733529 -0.11617095 -0.048620436 0.08240776
000340 a5 4e 9f 3b ea da 0b 3c 57 ce aa 3d 24 51 28 3e
       0.00486167 0.00853608 0.083401375 0.16437203
000350 3c b5 a0 3d 27 a0 98 3d 1e 1b 27 3a 66 31 1a 3e
       0.07847068 0.07452422 0.0006374585 0.15057907
000360 14 5d b6 3d b7 24 5c 3d a5 46 c8 bd e6 2e 0f be
       0.08904472 0.05374595 -0.097790994 -0.13982734
000370 ff 98 bc bd 0a 05 9f 3d 7b 18 a2 3d 2d 87 df 3d
       -0.09208869 0.07764633 0.079148255 0.109144546
000380 69 c7 34 3d 2d 9b 11 3b 7f 9a 80 bd 8f 11 b0 3d
       0.044135485 0.0022217736 -0.06279468 0.08597099
000390 70 fc d7 3d aa 7e c7 bc b9 17 35 be 45 30 95 3d
       0.105461955 -0.02435239 -0.1768483 0.07284597
0003a0 5f 37 18 bd 48 22 68 bb eb b0 23 3e 94 4a 99 bd
       -0.03716218 -0.0035420824 0.15985458 -0.07484928
0003b0 d2 90 93 3d e2 40 e0 3c 19 04 a4 bd 2b 28 a1 bd
       0.07205357 0.027374689 -0.08008594 -0.078689896
0003c0 f7 99 d7 bd 0d fc 93 bd 30 85 f6 bd 82 2a af 3d
       -0.10527413 -0.07225809 -0.12037122 0.085530296
0003d0 ab c5 09 bd c1 8b 19 bd 80 92 7d 3d 93 0c 98 bc
       -0.033635776 -0.037486795 0.06190729 -0.018560683
0003e0 f2 51 8f bc 64 33 08 be 83 19 b7 3c 5b 1c af bd
       -0.01749513 -0.13300854 0.022351032 -0.0855033
0003f0 9d 9c c4 3d 0a 20 c4 bc 38 be e6 3c cc b7 f8 bd
       0.09600184 -0.023941059 0.028166875 -0.121444315

fc2.bias f4 [84]
000000 22 98 33 3d 18 e0 a0 3d 40 4e bd 3d 1a 37 8d 3d
       0.043846257 0.078552425 0.09243441 0.068952754
000010 e4 d9 d2 bb a3 2c a7 bb 1c 54 52 3d c4 54 b0 bd
       -0.006434666 -0.0051017567 0.051349744 -0.08609918
000020 0e 2a 23 bc 34 3d ae 3d 43 71 23 bd e8 e1 b7 3c
       -0.009958757 0.08507767 -0.039902937 0.022446588
000030 f0 eb 53 bd e7 f0 96 3d 63 2d 8b bd cb 89 83 3c
       -0.05173868 0.07370167 -0.06795766 0.016056916
000040 ac c4 51 bd a0 0c a0 bd 6a 7f 36 bd 98 1f cb bd
       -0.05121295 -0.07814908 -0.044555105 -0.099181354
000050 9b 23 d1 3d 6c 19 9f 3d ac 45 1a 3d 3d 4a 3c bd
       0.10211869 0.07768521 0.0376641 -0.045969237
000060 aa 6b af bd ff d0 c0 3c 23 e4 b5 bc dc 33 53 bd
       -0.08565457 0.023537157 -0.02220351 -0.05156313
000070 25 77 2d 3d ea bf 08 bd 33 4b db bc c6 3b 89 bd
       0.042349953 -0.03338615 -0.026769256 -0.06700854
000080 8b 53 52 3d a8 ba 16 bd 8e bc b3 3d 2e a4 81 3c
       0.051349204 -0.036799103 0.08776198 0.015825357
000090 a9 4b eb 3c e9 1b 80 bd da 3c bd 3a 00 0a 5b 3d
       0.028722601 -0.062553234 0.0014437691 0.053476334
0000a0 50 62 f5 bb 37 80 a2 bd a9 56 09 bd 02 74 41 bd
       -0.0074885264 -0.07934611 -0.03352991 -0.047229774
0000b0 6c 93 38 3c be 62 20 bd 8d 26 0f 3d d4 a8 69 bd
       0.011265617 -0.039156668 0.034948874 -0.057045773
0000c0 31 58 68 bc d4 c3 a7 3c fc 20 1e bd 21 ed 9f 3c
       -0.014181183 0.02047912 -0.038605675 0.019522252
0000d0 c5 0b 6d bd 5e ec 6e 3b 34 50 99 3d 29 b7 5f bd
       -0.057872552 0.0036456804 0.07486001 -0.054618035
0000e0 78 31 89 bd 24 74 1a bd 54 36 3f bd be 13 6d bc
       -0.066988885 -0.037708417 -0.04668267 -0.014470039
0000f0 8c 0c 89 3d ca 53 1c bd 7f 05 be 3d 83 62 96 3d
       0.06691846 -0.038165845 0.09278392 0.07343008
000100 9e 40 2c 3d 75 33 6a 3d 08 19 24 3d 4b e7 7d bd
       0.04205381 0.05717798 0.040062934 -0.061988156
000110 31 fc 81 3d 11 c3 22 bd 9a e2 a3 bd 44 59 cf 3d
       0.0634693 -0.03973681 -0.08002205 0.10124448
000120 7a d2 47 bd aa 0f 85 bb c9 c8 b5 bd 92 cd d5 bd
       -0.04878471 -0.004060705 -0.08876187 -0.104396
000130 f0 e6 14 3d 5d c8 1c 3d a7 12 a3 3d 28 f8 20 bd
       0.03635305 0.03827702 0.07962542 -0.03929916
000140 f3 09 81 bd f0 c8 01 bd 5e 6d da 3d 9b 91 9e 3d
       -0.06300726 -0.03168577 0.106653914 0.07742616

fc3.weight f4 [10, 84]
000000 96 67 33 be 53 61 06 be 5b 8c bc bd 9d 28 75 3d
       -0.17519984 -0.13123064 -0.09206458 0.059853185
000010 60 bf 06 bd 09 c4 ac 3b f6 cc 45 be 48 00 2c bd
       -0.032897353 0.0052723926 -0.19316468 -0.041992456
000020 c2 1b e6 bd a3 a4 59 be 7a a9 91 bc 08 93 49 bd
       -0.11235763 -0.2125421 -0.017781008 -0.049212486
000030 ae a5 20 bc 92 6c e2 bb 7b b8 13 3e b7 b4 48 3d
       -0.009805126 -0.0069099152 0.14425842 0.049000468
000040 ec 5d d7 bd 7b 77 9f 3c 5e 2a c6 3c 0b 65 ad 3d
       -0.10515961 0.019466152 0.024190124 0.08466538
000050 15 b6 21 bd e3 1b f9 bd 99 c3 45 3e eb 37 47 bd
       -0.039480288 -0.12163522 0.19312896 -0.048637312
000060 8f 08 88 bd fb 97 09 3c 1b 9e 4b be e4 93 f8 3c
       -0.066422574 0.008398051 -0.19884531 0.030343957
000070 be 4a 6d be a2 02 d5 3d 6a 13 83 be da f0 71 be
       -0.23173043 0.10400893 -0.2560075 -0.23627034
000080 e1 f9 dd bd b4 14 37 be eb fa 0e 3b 31 af 62 be
       -0.10838676 -0.17878991 0.002181704 -0.22137143
000090 43 66 49 3e eb ac 83 3c d3 57 c2 bc af 03 97 ba
       0.19667916 0.016073665 -0.023723518 -0.0011521484
0000a0 a1 e1 c7 3d 76 22 4c bc 71 57 12 bd d3 3f 3b 3e
       0.09759832 -0.012459388 -0.035727922 0.18286066
0000b0 5b 5f ae 3d 4b ba a1 3d fe f7 49 be 25 b0 aa bd
       0.08514281 0.07896861 -0.19723508 -0.08334378
0000c0 a1 2c ff bd 84 7f d1 bd 58 00 00 be e7 5e c3 3c
       -0.12459684 -0.102294 -0.12500131 0.023848964
0000d0 e8 11 80 3d 27 af 8e bd 40 2b dc 3d 64 80 b7 bd
       0.06253415 -0.069670014 0.10750437 -0.089600354
0000e0 a7 bd 6d 3e c3 d5 43 3e f0 bb 05 bd df a6 ea 3d
       0.23216878 0.19124512 -0.032649934 0.114576094
0000f0 98 86 20 3e fa c6 17 3e 30 f9 e3 3d 63 df 2c be
       0.15676343 0.14821997 0.11131513 -0.1688209
000100 23 33 e7 3d 1d 2f da bd 97 89 be bb e9 d5 04 3e
       0.112890504 -0.106535174 -0.005814742 0.12972225
000110 1f cc a7 3c 8a 6d 35 be 40 01 3b bd 85 6b b2 3d
       0.020483075 -0.17717567 -0.04565549 0.08711914
000120 fa 5e 70 3e 63 6c bc 3c 20 fc f0 bc 1d 1a 90 3d
       0.2347373 0.023000902 -0.029417098 0.07036231
000130 ea 31 6f 3e b9 e5 fc bd 93 58 96 bd d7 0a be 3d
       0.23358884 -0.123485036 -0.07341113 0.09279411
000140 14 79 24 3e 6a 04 0f bd a2 eb f5 3d e1 4e 6b 3d
       0.16061813 -0.03491632 0.12007834 0.05744827
000150 c7 a5 60 bb 9e 1a 10 be 15 1e 7d 3e ae 8a fd bd
       -0.0034278498 -0.14072654 0.24718507 -0.12379967
000160 36 54 9b 3e e7 68 6e be 2d 3b 50 3e ff 26 1a 3d
       0.30337685 -0.23282205 0.20335074 0.037634846
000170 a6 de 78 be 83 db 74 bd 2f 8b 8d 3d f3 75 6c 3e
       -0.24303684 -0.059779655 0.06911313 0.23091869
000180 99 fd aa 3d 82 8b 88 be bb 2c 3a be 40 63 70 bd
       0.08349151 -0.26668936 -0.18181126 -0.058688402
000190 a1 82 ce 3d 14 0f b3 3d 90 b2 de bd cc be 9a 3d
       0.10083509 0.0874311 -0.10873902 0.07555923
0001a0 a9 af 7a 3c c2 ff a4 3e 24 5c 66 be 38 47 b5 bd
       0.01530067 0.32226378 -0.22496086 -0.088514745
0001b0 6b 13 c4 bd e6 0b c7 bd 98 df c1 3d ef ef d7 3c
       -0.09574016 -0.09719066 0.09466475 0.026359526
0001c0 57 99 04 be c6 dd ec bc e1 5e 5a 3b 2e 75 4d bc
       -0.1294912 -0.028914344 0.0033320712 -0.012540145
0001d0 e3 33 71 3e 47 ba b2 bd 03 ea 15 3e b4 8b 77 bb
       0.2355495 -0.08726936 0.1464005 -0.0037772479
0001e0 5e f8 3c be e6 43 ed bc 91 3b 12 bb 24 59 fb 3d
       -0.1845412 -0.02896304 -0.0022313336 0.122728616
0001f0 53 b5 16 bd 3c 95 8e bd cb ce b7 bb cc 0e 2f be
       -0.036794018 -0.06962058 -0.0056093684 -0.17095488
000200 8f ba 5d 3e e4 fe 34 be 5e e2 26 3e 6c 0e e1 3d
       0.21653198 -0.17675358 0.1629729 0.10989079
000210 61 b4 6e be 68 c6 53 3d fe b5 86 bc c1 bb 2a 3e
       -0.23310997 0.051702887 -0.016444203 0.16673185
000220 ac 6f 57 3d ac a5 13 be b9 86 8b bd 09 f7 af bd
       0.052596733 -0.14418668 -0.06812806 -0.0859204
000230 d2 84 5d 3d 82 23 81 bd 06 a2 30 3d 86 bb b7 bd
       0.054081745 -0.06305601 0.043123268 -0.08971314
000240 06 37 5c 3d cd e7 bf bd 67 71 44 be 6e 67 02 3e
       0.053763412 -0.09370384 -0.19183885 0.12734768
000250 0c 78 0c be e9 48 ba 3d 52 dd 8b be b4 6b 53 bd
       -0.13717669 0.09095938 -0.27317291 -0.051616386
000260 5b 9b 7b bd d9 84 16 be 4b 79 ab 3c c2 94 d5 bd
       -0.061427455 -0.14699115 0.02093186 -0.10428764
000270 cf 67 6c bd 62 6b 51 bd 88 34 0d 3d e7 26 b0 3c
       -0.057716187 -0.0511278 0.034473926 0.021502925
000280 fe 8d 11 bd 84 21 a3 3d cd f3 7e 3e 88 18 52 bd
       -0.035535805 0.07965377 0.2489769 -0.051292926
000290 4c 97 58 3e d8 ff 99 3d b7 91 d8 bd 66 c0 81 bd
       0.21151465 0.075195014 -0.10574668 -0.06335525
0002a0 b6 48 53 3e 22 66 57 3d d6 cd 7c be 7b 5b 67 3d
       0.20633206 0.052587636 -0.24687895 0.056483727
0002b0 df 92 3f 3e 6a 23 39 3e 2d 78 58 3e d2 74 58 bd
       0.1870837 0.18079916 0.21139593 -0.052845784
0002c0 09 86 f4 3d 14 fe c1 bd 5b 38 83 3d c9 7f 05 3e
       0.11939628 -0.0947229 0.06407233 0.13037027
0002d0 50 e9 fd bd e3 18 23 be 73 f8 58 bd c3 b9 a3 3b
       -0.123980165 -0.15927462 -0.052971315 0.0049965098
0002e0 ee 82 00 be 67 84 68 3d 3a 55 9c bc 74 b7 9e 3c
       -0.12549946 0.056766894 -0.019083608 0.019374587
0002f0 ef 51 26 be 66 ea fb bb b3 84 36 3d cb 70 5c bd
       -0.16242193 -0.0076878546 0.044560146 -0.053818505
000300 cf 10 4b bd ea 47 f0 bc 63 05 61 3c b6 dc d6 3d
       -0.049576577 -0.029331166 0.013734194 0.10491316
000310 8e 6e 24 3e 82 51 0d 3e 1c 74 10 be 6e 84 59 be
       0.16057798 0.13800624 -0.14106792 -0.21241924
000320 03 21 4a 3e 2d 67 14 3e d9 be f0 bd 33 93 92 3c
       0.19739155 0.14492483 -0.11755151 0.017892456
000330 83 77 81 3b 0d 90 12 3e 22 4a e4 bd 82 fb 33 be
       0.0039510145 0.14312764 -0.11146952 -0.17576411
000340 86 8a 2b 3e a2 4f 1c be 17 33 aa 3c d1 a6 12 3d
       0.16752061 -0.15264753 0.020776315 0.03580362
000350 cb d4 83 be 58 fd 86 bb 02 fc 91 be 83 5d e7 3c
       -0.25748286 -0.0041195564 -0.2851258 0.028242832
000360 8f b1 66 3d 2b 0e 11 3e ac 4d d1 3c d4 f1 a3 3d
       0.056321677 0.14165561 0.025549732 0.080051094
000370 df bc c9 bd 96 f9 21 bd f9 fd c6 bc d1 f8 8e 3d
       -0.098504774 -0.039544664 -0.024291025 0.06981052
000380 50 95 4c be 7d 28 6d 3d 22 1a 9b bd b6 0a 59 be
       -0.19978833 0.05789994 -0.07573344 -0.21195492
000390 d0 d0 93 bc ed 31 91 be 68 bc e6 bd 30 93 f5 bc
       -0.018043905 -0.28358403 -0.112664044 -0.029977411
0003a0 7f c1 c7 bd 3a 6f a7 bd 74 ea 48 be cc 8c 20 3e
       -0.09753703 -0.08175512 -0.19620687 0.1567871
0003b0 bc 07 61 3e 76 0d c6 3d 03 5f 4f bd d6 e5 85 3e
       0.21975607 0.09670536 -0.05062772 0.26151913
0003c0 0e 8d 7d 3e 6c 5e 4a bd d5 8d c7 3d 6c 92 84 bd
       0.2476084 -0.049406454 0.09743849 -0.0647324
0003d0 53 4a 15 be 77 1d dc 3d 29 ab 59 3e 03 7f dc bc
       -0.14579134 0.107478075 0.21256699 -0.026916033
0003e0 e0 fb 0c be 49 6a 16 3e 2f 95 a0 bd 5b 0c c3 3e
       -0.13767958 0.14688982 -0.078409545 0.38095364
0003f0 62 61 63 3e c1 22 5d 3e b4 fc 5a be 54 20 32 3e
       0.22205117 0.21595289 -0.21385461 0.17395145

fc3.bias f4 [10]
000000 6f b4 3d 3d 67 5b e4 3d f6 88 bb 3d 4b fc c0 3d
       0.046314653 0.11150246 0.091569826 0.09423121
000010 14 e1 86 bd e5 9b 0d 3d 94 49 88 bd 36 5e c8 bc
       -0.06585899 0.0345725 -0.06654659 -0.024458986
000020 2e 12 8c bc b8 be 53 3d
       -0.017098513 0.051695555
