sy8/final_model.pth (torch, 181111 bytes, 10 tensors)

conv1.weight f4 [6, 1, 5, 5]
000000 9f b6 3c 3d 6c ee ba 3e ba 1d b5 3e 27 f0 ff 3e
       0.0460726 0.36510026 0.35374242 0.4998791
000010 8c 16 0e be 0f c2 7d 3e 4e 4f 07 3f 19 88 68 3f
       -0.13875788 0.24781059 0.52855384 0.9083267
000020 8b 7f 47 3f 61 a7 fc bd 62 ee 0e 3f 3b 99 57 3f
       0.7792899 -0.123366125 0.55832493 0.84218186
000030 0c f1 83 3f 28 62 20 3f 09 2b 17 3e 70 7f 50 3e
       1.0307937 0.62649775 0.1476251 0.20361114
000040 20 b4 34 3f ba 88 12 3f 2b e3 42 3e 91 a5 5f 3c
       0.7058735 0.5723988 0.1903197 0.013650314
000050 04 98 7b be a1 9c 08 3c 84 fb 5f bd ac 5f a0 3d
       -0.24569708 0.0083381245 -0.054683223 0.07830748
000060 86 c7 67 be b5 75 2d be a0 d6 06 be b4 91 3b be
       -0.22634706 -0.16939433 -0.1316781 -0.183173
000070 a5 5f d7 bd 50 08 d1 be f0 99 fd 3d 58 78 fb bd
       -0.105162896 -0.40826654 0.12382877 -0.12278813
000080 cb 43 8f 3e 23 b7 60 3d 43 b4 5b be 6b 0b 64 3e
       0.2798141 0.054862153 -0.21455483 0.2226998
000090 10 1b a7 3e 1e 6d 0a 3f 76 fc 87 3e b8 01 6e bd
       0.32637835 0.5407275 0.265598 -0.058107108
0000a0 e1 4d 74 3e 66 92 b5 3e 53 14 08 3f f9 b3 f5 3e
       0.23857833 0.35463256 0.5315601 0.4798887
0000b0 44 f5 40 3e 4f 2a 34 3d 6f 50 de 3e 7d 7b ad 3e
       0.18843561 0.04398566 0.4342074 0.33883277
0000c0 0f 9e 8c 3e e6 a5 a7 bd 08 73 ad be 65 da 1d 3d
       0.2746434 -0.081859395 -0.33876824 0.038538355
0000d0 71 fb 07 3e a0 47 cc 3e ba a3 7e 3d 39 60 99 3c
       0.13279511 0.39898396 0.06216786 0.01872264
0000e0 20 4d 9a 3e 72 72 b1 3e 6d 45 95 3e 81 4c aa be
       0.30136967 0.34657627 0.2915453 -0.33261493
0000f0 86 f0 f0 3d df ed 64 3e df 6b d5 3e 0f 54 75 bd
       0.11764626 0.22356366 0.41683862 -0.059894618
000100 1f eb 80 be 5f 50 4e 3e 09 71 06 3f 5d 79 f9 3d
       -0.25179383 0.20147847 0.5251623 0.12181351
000110 ab 4d 63 be c0 30 d3 be c0 6b f1 3e 9d de c0 3e
       -0.22197597 -0.4124813 0.4715252 0.3766984
000120 4e a4 a5 3e 98 6f 9c be 42 7a d5 be a9 89 94 be
       0.32351917 -0.3055389 -0.41694838 -0.29011276
000130 1b 07 7e be 35 e1 d1 3d 25 43 52 3e e0 40 9a 3e
       -0.24807398 0.10248033 0.20533426 0.3012762
000140 37 3f 74 be 13 d2 32 be 16 31 78 3e 46 35 02 3e
       -0.2385224 -0.1746295 0.24237475 0.12715635
000150 15 21 81 3e cd f9 3a be 30 92 06 3e 26 42 2a 3d
       0.25220552 -0.18259354 0.13141704 0.04156699
000160 17 68 00 3e a3 22 1b 3e 86 4d 4e bd 55 b9 a6 ba
       0.12539707 0.15149932 -0.0503669 -0.0012720028
000170 e5 33 91 3e ea 88 93 3e 8e 2c 00 be e0 65 06 be
       0.28359905 0.28815395 -0.12516996 -0.131248
000180 82 9a 83 3e 68 da 57 3d 8c f6 57 3c 19 5b 4c be
       0.25703818 0.052698523 0.01318134 -0.19956626
000190 4d 7f 8a be 13 0d 19 be b1 3e 48 be ca cb 94 be
       -0.27050248 -0.14946394 -0.19555165 -0.2906173
0001a0 12 f2 20 be 01 3d 9a be 32 34 bd be b9 6d 89 be
       -0.15717342 -0.30124667 -0.36953884 -0.26841524
0001b0 39 fd a5 be ba 9b 9f be b6 fc 4a 3c a5 47 35 be
       -0.32419756 -0.31173497 0.012389353 -0.17703111
0001c0 b3 78 dc bd e1 29 ae be 2d da a4 be 5e a4 5f be
       -0.10765209 -0.34016326 -0.32197705 -0.21840045
0001d0 f9 60 1d be c7 9a ad be bc 13 78 be e9 4f 9b be
       -0.15369023 -0.33907148 -0.24226278 -0.30334404
0001e0 0a 28 f0 bd 35 fe 7c be 22 5d 47 be 82 e8 a2 be
       -0.11726387 -0.24706347 -0.19469121 -0.31818014
0001f0 b0 b4 9d be db 50 13 be 60 3c 00 be 70 4b 47 be
       -0.30801916 -0.14386313 -0.12523031 -0.19462371
000200 41 f0 44 3e de 16 14 3c cf 9a 14 3e 97 1c 36 3c
       0.19232275 0.009038655 0.1451218 0.011115215
000210 17 aa 2e be e8 f6 5f 3e 8d 4f 83 3c 0a b3 de bd
       -0.17057072 0.21871531 0.016029144 -0.10873993
000220 2a 5d 52 be 41 75 1f be c8 54 30 3e b6 9f 83 3c
       -0.20543352 -0.15572073 0.17219841 0.016067367
000230 d6 ad b1 3c e6 35 49 be 80 c3 51 3e 9b c1 5b bd
       0.021689337 -0.19649467 0.20484734 -0.053651433
000240 bf c0 a2 bc b0 30 06 bc 70 4f c1 3d 06 c4 62 3e
       -0.0198673 -0.008190319 0.094389796 0.2214509
000250 01 bd 78 3e b8 0e 33 be
       0.2429085 -0.17486084

conv1.bias f4 [6]
000000 28 c6 55 3f 6f d0 96 3e 0e ae 8f bd 08 d2 a5 bd
       0.8350549 0.29455897 -0.0701562 -0.08096701
000010 23 91 f5 3e a1 0a fa bd
       0.47962293 -0.122090586

conv2.weight f4 [16, 6, 5, 5]
000000 13 5d 89 3d b3 de b5 3c 3f 27 45 bd 4a f1 45 3d
       0.067072056 0.022200918 -0.04813313 0.048325814
000010 e4 7e 9b 3e 72 ac 9b 3d dc e8 dd 3a 6d 8b b4 be
       0.30370247 0.07601251 0.0016930359 -0.35262623
000020 bf 35 40 be e8 89 91 3d 94 8d 36 3d 68 5d 4a 3e
       -0.18770503 0.07106382 0.044568613 0.19762194
000030 3b 81 07 be 7d 39 a4 be a8 a2 6a bd ee 37 7f 3d
       -0.13232891 -0.3207511 -0.057284027 0.062309198
000040 b5 9b 90 3e ef 1a b2 3d ce 90 5b be 36 f7 0c be
       0.28243795 0.086965434 -0.21441957 -0.13766178
000050 8a 18 ea bd 95 3b 1b 3e 33 c2 36 3e 3a 26 11 be
       -0.11430462 0.15159447 0.17847519 -0.14174739
000060 c7 cf df bc 10 09 69 3d fc 46 23 bc fc 54 1a be
       -0.027320756 0.05689341 -0.009965654 -0.15071481
000070 ff 59 03 bb bb e5 fc 3d 5d d9 8b 3d 20 58 a6 3c
       -0.0020042656 0.12348505 0.06828568 0.020305693
000080 21 a5 14 be 71 ed 04 be 01 bd c5 bb 21 ca f2 3c
       -0.14516117 -0.12981202 -0.006034494 0.029637398
000090 11 aa 3a 3e da 4f c0 3d 3e 4c f9 bd bc 61 9c bd
       0.18228938 0.093902305 -0.12172745 -0.07635829
0000a0 0e 92 20 bb 24 d7 c1 3d 26 ba da 3d 5b bb c0 bc
       -0.0024501118 0.09464863 0.10680036 -0.023526838
0000b0 4e 27 09 be ae 14 ca bd 29 7a 7d 3d 7e 72 25 3d
       -0.133939 -0.098672256 0.06188408 0.04039239
0000c0 96 ed a3 bc 11 c0 db bc a5 67 3e bd 8d 16 da bc
       -0.02001075 -0.026824983 -0.046485562 -0.026622081
0000d0 34 1d 80 bd 5e a2 36 bd 13 1a de 3c 64 04 71 bb
       -0.0625557 -0.04458844 0.027112043 -0.0036776299
0000e0 84 4f 77 bd ea df 98 bd b9 f5 db bd a7 a8 04 3d
       -0.060378566 -0.07464583 -0.10740227 0.032387402
0000f0 a8 20 47 bd ea fb 08 bd 0a 61 63 3d 7d 06 85 bd
       -0.048615128 -0.03344337 0.055512466 -0.06495378
000100 3b d8 ba bd 5f 17 cc 3c 00 c0 c1 bc 5e 9c 12 3d
       -0.09123274 0.024913488 -0.023651123 0.035793655
000110 bd f8 bb bd 21 b3 b4 3c 52 f2 0b 3d bd 68 78 3d
       -0.091783024 0.022058072 0.03416664 0.06064676
000120 33 41 b0 bc 74 cf f6 bd 07 0d 9e bd 49 76 4f 3d
       -0.021515464 -0.12051287 -0.077173285 0.050649915
000130 c6 ad 02 3d f1 42 61 3d 21 fd 0a 3d 09 05 c3 3c
       0.031904005 0.05499548 0.03393281 0.023806112
000140 aa be ad bc 66 cf ec bd ed a5 fd bd b6 f5 b2 bd
       -0.02120908 -0.115629956 -0.123851635 -0.08738272
000150 b9 46 59 3d 21 c3 32 bd 28 83 88 bd c1 22 cf bd
       0.053045962 -0.04364312 -0.06665641 -0.10114051
000160 12 d9 af bc 70 92 24 bd 5d f2 98 bc 6a 4c 02 3d
       -0.021465812 -0.040178716 -0.018670255 0.031811155
000170 65 69 4c bd 21 4c 05 3d 33 e7 97 bc d8 b6 72 bc
       -0.0499052 0.032543305 -0.018542862 -0.014814101
000180 0e fb 28 3d 3b ae 04 bd 0a 90 31 bd b8 81 7f bd
       0.04125505 -0.03239272 -0.043350257 -0.06237957
000190 e2 aa 15 3d 85 32 ce bc 37 c8 c9 3d a8 4a 93 3d
       0.03653992 -0.025170574 0.09852641 0.07191974
0001a0 8d ff 12 3d fb f7 8a bd e5 f9 e3 3d ba ae 98 3d
       0.035888243 -0.0678558 0.11131648 0.074552014
0001b0 29 08 11 3e c7 bd f4 3d 81 ee be bc f4 7e bd 3c
       0.14163269 0.1195026 -0.023307087 0.023131825
0001c0 b5 8c 8f 3d 08 96 65 3d e3 30 07 3e d9 74 b1 bd
       0.070092596 0.056051284 0.13202243 -0.08664865
0001d0 2b 11 0c 3d 2d fe bd 3d 11 a6 28 3e a0 b3 8a 3d
       0.03419606 0.09276996 0.164696 0.06772542
0001e0 e5 6e 80 bd ef 81 ef bb 84 ec 4b 3d 15 6e d0 bc
       -0.062711515 -0.0073091905 0.049786106 -0.025443116
0001f0 8e 71 2d 3d 5f 4b 45 bd 78 9d 8c bc 53 fa 7e bd
       0.042344622 -0.048167583 -0.01716493 -0.062250447
000200 46 ad 62 bd e5 5f f8 bc ba 72 a4 bd de 8b 34 3d
       -0.055341028 -0.030319164 -0.08029695 0.0440787
000210 00 83 3a 3d ad db fc bc c2 06 82 bc 0a e3 13 bd
       0.045535088 -0.030866468 -0.015872363 -0.036105193
000220 e4 86 c0 bd 5b 62 bd bd e2 ec a0 3c 46 18 57 bd
       -0.09400728 -0.092472754 0.019644205 -0.052513383
000230 c1 e6 5f bd 68 44 77 bc 82 8e 23 bd 48 d2 1c bd
       -0.054663423 -0.015091993 -0.039930828 -0.038286477
000240 1a c1 87 ba a6 35 22 bc f4 ab 98 bc 3c e8 42 bd
       -0.0010357231 -0.009900486 -0.018636681 -0.047584757
000250 15 5a 97 bd 97 65 9f 3d 71 4e af 3b 69 54 4f bc
       -0.07390229 0.077830486 0.005349927 -0.012654402
000260 8e e7 b7 bd a9 59 0c 3c 93 f3 23 3e e3 63 7a 3d
       -0.089797124 0.0085662985 0.16010885 0.061130416
000270 e5 4a 0b be 61 f0 4c bd 3e 59 d6 3d 41 22 c6 3d
       -0.13602789 -0.05003393 0.1046624 0.09674502
000280 a9 4f 84 3d e0 d5 ff 3c 8e b5 8e bd 46 05 26 3d
       0.064605065 0.031229913 -0.069682226 0.040532373
000290 d7 05 43 bd 5f 8b 44 3d 0a 45 64 3d 62 71 dd 3c
       -0.04761299 0.047984477 0.055729903 0.027031604
0002a0 7a b5 63 ba 20 f4 60 bd d6 26 06 bd 7b 0b a8 bd
       -0.0008686405 -0.054920316 -0.03275188 -0.08205315
0002b0 a7 cc a0 bb a4 16 ee 3d 0d 40 0a 3e fd 38 1e 3d
       -0.004907209 0.11625412 0.13500996 0.038628567
0002c0 82 b8 b5 bd 9e ed db bd b4 2b 35 3d 26 6e c0 bc
       -0.08873083 -0.10738681 0.04423113 -0.023490023
0002d0 08 9b 09 bc a7 f4 b8 3b 70 46 a1 bd 62 fe 22 bc
       -0.008398779 0.005644399 -0.07874763 -0.009948345
0002e0 82 c1 bb bb cb 2c 22 3c 07 34 4e bd 4f e5 c5 bd
       -0.005729855 0.009898375 -0.050342586 -0.09662878
0002f0 70 35 7d bd 44 7e 70 bd ec 0f d2 3d cd aa 27 bd
       -0.06181854 -0.058714166 0.10256943 -0.040934373
000300 84 38 39 bd 73 ee 89 3d 5f 55 2f 3d ed 63 12 3d
       -0.045219913 0.06734934 0.042806026 0.035739828
000310 a3 9a 84 3d 8f 59 a4 3d f6 2a 44 bc 78 b4 5d 3d
       0.06474807 0.080248944 -0.011973133 0.054127187
000320 2a 90 74 3d 99 0a 72 b9 bc 19 81 bd e7 9d 9d 3d
       0.059707798 -0.00023082866 -0.063037366 0.07696133
000330 95 6a a6 bb b9 59 2d bd a3 e6 ad bd a0 95 95 bc
       -0.0050786235 -0.042321894 -0.08491256 -0.018259823
000340 29 b1 56 3d 1f 74 34 3d f2 1a 9c 3c c6 36 90 bd
       0.052415047 0.044056054 0.019055817 -0.07041697
000350 31 25 b7 bd b9 f1 af 3c b6 05 a5 3d 6d 90 7b 3d
       -0.089426406 0.021477567 0.0805773 0.061417032
000360 1a 82 60 bd 64 6b c8 bc fb 31 23 bd 02 0d c4 bc
       -0.054811575 -0.02446527 -0.039842587 -0.023931984
000370 e6 11 a9 3c 28 e9 18 3d 2e 55 8a 3d 4c 11 2e bd
       0.020638417 0.03733173 0.06754528 -0.042496964
000380 d1 94 a0 3d 18 b0 78 bd b2 89 b3 3c c9 5f 84 3d
       0.078408845 -0.06071481 0.021916244 0.06463582
000390 c2 a0 0c 3c 7a 0d ca 3d 50 21 a7 bd da 19 46 bd
       0.0085832495 0.09865852 -0.08160651 -0.048364498
0003a0 5a 2b 5e 3d 5b 44 81 3c 2c aa 7d ba b1 1c 16 bd
       0.054240562 0.015779665 -0.00096765417 -0.036648456
0003b0 96 34 4d 3d 04 39 61 3d 9f dd 4e 3d 80 be 55 bd
       0.050098978 0.054986015 0.050504323 -0.052183628
0003c0 3c fa 81 bd 3e 3d 06 3c 48 f2 20 3d 77 24 ce bc
       -0.063465565 0.008193312 0.039293557 -0.025163872
0003d0 b2 b8 e2 bc c7 12 54 3d f7 46 47 3c f6 c2 e2 3c
       -0.02767596 0.05177572 0.012162915 0.027680855
0003e0 b3 12 fa bb 9c 6f 91 bd 94 3a c7 bd 3d 07 23 bd
       -0.0076316237 -0.07101366 -0.0972797 -0.039801825
0003f0 e2 52 55 bd e0 f4 bd 3b 34 ca 02 bd 4a 9b 2f bd
       -0.052080996 0.0057970136 -0.031931117 -0.042872705

conv2.bias f4 [16]
000000 1b 38 4a 3c 6c 60 01 3d 4e a8 82 3d 0b 5a bb 3c
       0.012342478 0.031586096 0.06379758 0.022870084
000010 14 14 98 bd 1d b8 95 3d 9a 78 85 3d ed ff b5 3d
       -0.074257046 0.073105074 0.065171435 0.088867046
000020 8b 20 74 bc b1 23 e1 3c 41 5d e3 3c 12 01 d6 3d
       -0.014900337 0.02748284 0.027754428 0.10449423
000030 d4 82 a2 3c 6b 06 bc 3d 7d 36 ed 3c 78 b7 63 3d
       0.019837774 0.09180912 0.028956646 0.05559489

fc1.weight f4 [120, 256]
000000 bb 7a 65 3c 60 68 95 3d f1 c4 4d 3d 6a 6a 8b bd
       0.014006312 0.072952986 0.050236646 -0.06807406
000010 3b 67 e1 bb 74 8e 34 bd af 2c 99 bd ac 78 8f bc
       -0.006878761 -0.044081166 -0.07479226 -0.017513596
000020 a0 c3 c3 bb de fa a3 3c a1 1a c0 3c 59 4c 27 bd
       -0.005974248 0.020017084 0.023450198 -0.040844295
000030 28 3a ec bc 29 31 50 bb 0f 86 08 3c bd b5 ed bc
       -0.028836325 -0.0031767583 0.008332743 -0.029017324
000040 22 df 79 3d 05 b4 12 bd bb 43 2e bd 0e 2f ff 38
       0.06100381 -0.03581621 -0.04254506 0.00012168112
000050 8f fc 5e 3d 16 0d ea 3c e7 7f 9d 3c 37 a5 b1 3c
       0.054440077 0.028570693 0.019226028 0.021685226
000060 9a a9 b6 3d 20 07 bd 3c 04 85 2d 3d 74 a0 6c bc
       0.08919068 0.023074687 0.04236318 -0.014442552
000070 a0 18 5d bd ca 18 67 bc 15 91 a7 3c b3 67 32 3d
       -0.053978562 -0.014105031 0.020454923 0.043555927
000080 1f d0 b9 bc 63 2e 26 3d ee 44 a8 3c 05 b9 9e bb
       -0.022682248 0.04057158 0.02054068 -0.0048438334
000090 10 3a c3 3b 16 a1 68 bb ad c2 0b 3d 0e 42 54 bc
       0.0059578493 -0.0035496405 0.034121204 -0.012955202
0000a0 ef 7d 38 3d 9c 70 ae bd ba 82 9c bd f0 fb 8d bb
       0.045041975 -0.08517572 -0.076421216 -0.004333012
0000b0 a0 2b b3 3d cb bc 70 3d 7b cb 28 3c 7a 32 64 bd
       0.08748555 0.058773797 0.01030242 -0.0557122
0000c0 f8 43 f6 ba 2b cb 6a bd 61 da 62 bd fe b7 14 3c
       -0.0018788567 -0.057322662 -0.055384044 0.00907707
0000d0 1d ce 49 bd 64 54 9e 3d 0d 6b 5b bc 92 b2 11 3d
       -0.04926883 0.0773094 -0.013392222 0.03557069
0000e0 04 d5 58 3d 07 e1 bf bd 52 f5 39 3d 2b fd 1c bc
       0.052937523 -0.093690924 0.04539997 -0.009581844
0000f0 e3 53 71 3c 7e e2 b6 3c c7 d2 07 bd c6 d3 1c bd
       0.014729473 0.022324797 -0.033159997 -0.0382879
000100 06 68 65 3d 10 f8 61 3d 2e 0c bf bc 52 59 09 3d
       0.056007408 0.05516821 -0.023321237 0.033532448
000110 fb 39 61 3d 66 c1 1a 3d 69 fa c8 3d fb d1 20 3d
       0.054986935 0.037782095 0.09813387 0.039262753
000120 df ce d9 bb 45 33 d0 3c 89 db ba bc cb d2 e9 bc
       -0.0066469754 0.025415072 -0.02280976 -0.028542897
000130 74 a7 86 3d cc ca e1 bb 2b 5d b4 bc d0 93 3b bd
       0.06574908 -0.0068906303 -0.022017082 -0.04579526
000140 74 aa 5b 3c 35 98 89 bc 24 05 93 bd 2f 11 71 bd
       0.013407338 -0.01679621 -0.07178715 -0.05885428
000150 86 6c 7e 3c 5e e2 0c bd 14 3d fa bb 2a 2b b2 bc
       0.015528804 -0.034395568 -0.0076366756 -0.021749098
000160 85 0a ad bc 08 66 ff 3b c2 82 a4 bd b2 d1 8e bd
       -0.02112318 0.0077941455 -0.080327526 -0.0697359
000170 b0 ba db ba 67 3a 2a bd cf 80 45 bd 6c 26 bd 3c
       -0.0016764011 -0.041559603 -0.048218545 0.02308961
000180 9d 67 9c 3c 7e ae 30 3c e6 9d 1e 3c d8 28 80 3d
       0.019092375 0.01078379 0.009681201 0.0625779
000190 66 4c 2c bd 95 4d 29 bd 9d 06 93 bd a8 36 16 bc
       -0.042065047 -0.041333754 -0.07178996 -0.0091683045
0001a0 e7 f3 af bb 62 80 be bd 7d 7b e2 bc 72 bd c7 bd
       -0.0053696516 -0.09301831 -0.027646774 -0.09752931
0001b0 b2 a7 51 3c bf 78 7b bd 7e 7d 4b bc 39 41 29 3c
       0.012796329 -0.06139445 -0.012420056 0.010330492
0001c0 f6 41 03 bd 70 95 aa 3d 81 e5 16 bd 39 ef 38 3c
       -0.032045327 0.08329284 -0.036839966 0.011287504
0001d0 60 e1 6a bd ff 97 9e 3d 5f 5a 81 3d 89 32 e3 3d
       -0.05734384 0.07743835 0.06316065 0.11093623
0001e0 14 de d7 3c b9 30 91 bd 29 ae a7 bc 6e 4e 06 bd
       0.026351012 -0.07089371 -0.020468788 -0.03278964
0001f0 b6 2f b5 3b 71 7d 11 bd 62 68 8e bd 50 8f 11 bd
       0.005529369 -0.03552002 -0.06953503 -0.035537064
000200 69 d6 53 3d 7a ae 4c 3c 97 86 5b bd a5 96 2a 3d
       0.05171815 0.01249277 -0.05359515 0.041647572
000210 b5 d9 3c bc 51 5f c9 bc 10 4d b5 bc 8e 48 49 bd
       -0.011526515 -0.024581583 -0.022131473 -0.04914146
000220 f4 33 12 3d 6d 71 76 bd 34 ea 9a 3c 25 b4 d3 bc
       0.035694078 -0.060166765 0.018910505 -0.025842736
000230 d2 69 02 3d 36 a8 53 3d aa 14 83 3d 7b cd 16 3d
       0.0318392 0.05167409 0.06400426 0.036817055
000240 dc c1 93 3d b4 2e a7 3d 57 c3 13 3d e1 90 f0 3c
       0.0721471 0.08163205 0.036074962 0.029365959
000250 27 9b 0c 3d fc e3 24 3c 17 08 71 3d 59 75 57 bd
       0.034327652 0.010064121 0.058845606 -0.052602146
000260 09 87 d9 bc ce cd 83 bd ba 01 c4 bc 4d eb 93 bd
       -0.026553648 -0.064357385 -0.023926605 -0.072226144
000270 aa fd e7 bc f3 f4 9a bc e5 95 53 3d de 69 06 3c
       -0.028319199 -0.018915629 0.051656622 0.008203952
000280 67 8e ca bc 8a 14 ac 3c 66 8e 5d 3c bb 0b bb bd
       -0.024726106 0.021005888 0.01352272 -0.09133097
000290 30 8a b1 3d 48 ac f8 3d b6 32 37 3d f2 02 16 bc
       0.08668935 0.12142235 0.044726096 -0.009155976
0002a0 32 77 a6 3c 1c 29 ff 3b f8 51 bd bc f6 18 09 3d
       0.020320509 0.007786883 -0.023110375 0.03347107
0002b0 ac b6 a5 3c 15 21 94 3d 16 46 7b bd 33 dc 95 3c
       0.020228706 0.072328724 -0.061346136 0.018293476
0002c0 70 2e b5 bc cf 8e 8b 3d 33 79 7c 3d d7 2f 06 3b
       -0.02211687 0.06814348 0.061639022 0.0020475292
0002d0 a3 09 55 3d 2c 08 a4 3d ec 30 49 3d d5 10 fb bc
       0.052011143 0.08009371 0.04911892 -0.030647675
0002e0 fe 89 ac 3d e1 31 a4 3b c0 23 9d ba 36 f4 50 bd
       0.084247574 0.005010829 -0.0011988804 -0.051014148
0002f0 ee 1d 7d 3d f6 4f c2 3d f3 39 57 bd 16 79 96 3d
       0.06179612 0.094879076 -0.0525455 0.07347314
000300 58 83 ee bc 48 f5 05 bd 59 d5 36 bd a3 7a 9b 3c
       -0.029115364 -0.03270462 -0.044637058 0.018979376
000310 83 34 65 bd 1b d4 43 bd ea 76 47 bd 36 3d 24 3d
       -0.055958282 -0.0478097 -0.04869739 0.040097438
000320 64 54 82 bd c5 2a 6f bd 77 71 e5 bc 7c 4a 91 3a
       -0.063637525 -0.058390398 -0.028008206 0.001108482
000330 66 15 8a bd 91 99 80 bc cb c9 4a bd 66 83 61 bd
       -0.06742363 -0.015698226 -0.04950885 -0.055056952
000340 7a 97 56 bb b5 69 05 bd 8d 7d 7f 3d 08 fa 61 3a
       -0.0032744096 -0.032571513 0.062375594 0.00086203264
000350 32 cc 4b 3c ff 88 60 bd 14 5c 19 be 9a c8 0b 3d
       0.012438821 -0.05481815 -0.14976531 0.034126855
000360 2f be a5 bd 81 8c 05 be 61 09 c0 bd b3 3e 06 bd
       -0.08092915 -0.13041879 -0.09376789 -0.03277464
000370 40 fc 5f bc e5 15 ca bb 49 35 95 3d 54 9f 8e b9
       -0.013670981 -0.006167161 0.07285554 -0.0002720306
000380 94 a5 91 3d bd 3b 8e 3d c9 b5 7e 3d a8 86 08 3d
       0.0711166 0.06944988 0.062185083 0.033331543
000390 fb b5 3b 3d db 7e 97 3d 1e 42 16 3d 89 90 68 bd
       0.045827847 0.07397243 0.036684148 -0.056778464
0003a0 10 84 6e bc 18 2d b3 bd 99 3c fc bc 94 0d 68 bd
       -0.014557853 -0.08748835 -0.030790614 -0.056653574
0003b0 63 d5 21 3d c5 98 40 bb 45 75 b2 bb 60 ce 29 bd
       0.039510142 -0.0029387933 -0.0054461085 -0.04145658
0003c0 9d 96 4d bd 63 be 50 3c 5c 9e 6b bd 88 aa 79 bd
       -0.050192464 0.012740704 -0.05752407 -0.060953647
0003d0 c9 5e 88 3d 44 7c 12 3d 73 09 2c bd 8a b0 7a 3d
       0.06658704 0.03576304 -0.0420012 0.061203517
0003e0 44 f7 0f 3d 76 57 a7 3c 8c 43 9a 3c 53 aa 80 3c
       0.03514792 0.020427447 0.018831037 0.015706217
0003f0 84 6a 4c bd 57 1f 0b 3d 3d 04 ef bb d2 9f 0d bd
       -0.04990627 0.033965435 -0.0072942064 -0.034576245

fc1.bias f4 [120]
000000 3b 72 0d bc fb c9 7f bc e5 e9 30 3d e9 03 6e 3d
       -0.008633192 -0.015612121 0.04319181 0.058109198
000010 9b d3 ab 3d 4d 09 7e 3d 24 a4 d0 39 f0 b9 04 bd
       0.0838997 0.06202059 0.00039795146 -0.032403886
000020 fd 00 4b 3d 29 db 33 3d 34 2b 11 bc 2e 7a 39 3d
       0.04956149 0.04391018 -0.008860398 0.045282535
000030 7d 2b c6 bc 6f 42 40 bc 11 76 7a 3d ef 57 85 3d
       -0.024190659 -0.011734589 0.061147753 0.065109126
000040 a5 dc 5a bd c8 40 06 3d 6a ea 6a 3d fe 54 83 3c
       -0.05343308 0.032776624 0.05735246 0.016031738
000050 ad cb 8d 3c 74 62 d7 3c 1a 7d 22 3c 45 49 36 3d
       0.017309034 0.026292063 0.009917522 0.04450347
000060 db 6b 28 bd ee 08 0d 3b 96 97 a8 bc 2b a0 5d 3d
       -0.041118484 0.0021520215 -0.020580094 0.054107826
000070 09 5a 2c bd 65 49 f5 3c 76 ba df bc 50 de 76 3d
       -0.04207805 0.029942224 -0.027310591 0.060270607
000080 b4 f4 2c bc 0c fe 0b 3c d7 31 03 3d 59 1d 11 3d
       -0.010556389 0.008544456 0.032029953 0.03542838
000090 56 ba c7 3c 20 8b 14 3d 36 bf b8 bb bf 8e 0d bd
       0.024380844 0.036265492 -0.0056380285 -0.03455996
0000a0 bf 4c dd 3c 71 d5 77 bd 5b 05 14 3d 7c fe 50 3d
       0.027014134 -0.060506288 0.03613792 0.051023945
0000b0 81 e2 96 3d aa 86 20 3d 64 9a 03 bd 9b f0 3b bd
       0.07367421 0.039190926 -0.03212966 -0.045883756
0000c0 28 72 c2 bc 31 79 01 bd 46 43 c7 ba 17 e5 16 3d
       -0.023736075 -0.031609718 -0.0015202544 0.03683957
0000d0 26 a5 41 3d ee cd 89 bd 37 02 d7 3c 16 d1 01 bd
       0.04727664 -0.06728731 0.026246173 -0.03169354
0000e0 4c 08 b5 bc 67 a7 37 bd 2a 97 9b bc 38 a7 87 bc
       -0.022098683 -0.04483738 -0.01899298 -0.016559228
0000f0 1b aa a4 bc f2 3c 50 3d d9 99 c6 bb e2 e6 ba 3c
       -0.020100644 0.050839372 -0.0060608205 0.022815172
000100 41 4a 26 bc 27 7d 61 3d 19 9d 2e bd f2 a4 af ba
       -0.010149539 0.055050995 -0.04263029 -0.0013400598
000110 94 b7 04 bd 62 f6 0f bd 30 33 cc bc f8 b7 47 bd
       -0.032401636 -0.03514708 -0.024926752 -0.04875943
000120 e3 e0 a5 ba 1f 06 86 bd 06 ac 04 3b 30 8c 84 3c
       -0.0012655522 -0.06544136 0.0020244136 0.016180128
000130 ce 91 54 3d e8 62 4b bd 63 f8 3b bb 66 54 84 3c
       0.051896863 -0.04965487 -0.0028681986 0.016153526
000140 51 75 71 bd a0 99 1d 3d c7 66 f1 3c db 12 be 3c
       -0.058949772 0.038476586 0.029467953 0.02320235
000150 a0 85 fa bb d4 92 64 3c 06 69 fc 3c 5b e8 ea bc
       -0.007645324 0.013951022 0.030811798 -0.028675249
000160 d9 21 bf 3c 2d 67 b7 3c e9 62 8b bd ac 2c d9 bc
       0.02333157 0.022388065 -0.06805975 -0.026510559
000170 15 11 11 bd 2c 00 ee bc 8a d7 3f 3d bc d6 bc bc
       -0.03541668 -0.029052816 0.046836413 -0.023051612
000180 b7 1c 9d bc 99 fb 69 bd 66 45 59 3d e5 43 e8 3a
       -0.019178731 -0.057124708 0.0530447 0.001772043
000190 d7 80 4c 3d 2a 70 6c 3d 65 a7 e5 bc 4d e9 d7 3c
       0.04992756 0.057724155 -0.028033921 0.026356364
0001a0 39 36 2d 3d 93 02 65 3d f3 f3 bf 3a 4b c8 98 bc
       0.04228804 0.055910658 0.0014644846 -0.018650195
0001b0 06 3b 98 3d 40 ac dd 3c 85 f4 08 bd cf be d0 3c
       0.07433133 0.027059674 -0.033436317 0.02548161
0001c0 be 7d 65 bd 4c eb 3c 3c 19 6e 18 3d 22 83 b4 bb
       -0.05602812 0.0115307085 0.037214372 -0.0055087963
0001d0 66 95 e4 bc ac 82 65 3d 7f 72 c1 3a 20 99 63 bd
       -0.02790327 0.05603282 0.0014758854 -0.055565953

fc2.weight f4 [84, 120]
000000 02 b1 ec 3d 28 8d a0 3d bb 06 fc bc 35 64 8a 3d
       0.11557199 0.078394234 -0.030764928 0.06757394
000010 23 29 0e bd 88 0d d6 3c 2b cf 1f bd 56 ad a9 bd
       -0.0347072 0.0261295 -0.03901593 -0.08285014
000020 a9 86 60 3c f6 5e 2a 3e 30 14 1d be ec 68 e9 bd
       0.0137039805 0.16637787 -0.15339732 -0.113969654
000030 70 d3 89 bc ab f6 9b bd 7f 47 e3 bc 49 14 0b 3e
       -0.016824454 -0.076154076 -0.027744053 0.13581957
000040 7e 33 af 3d 8d c0 38 bd e9 ca 87 bc 25 e8 94 3c
       0.08554743 -0.045105506 -0.016576247 0.018177101
000050 7f 63 e7 bd ff 39 9d bd 06 14 7a 3d d7 7e e3 bb
       -0.11298274 -0.076770775 0.061054252 -0.0069426107
000060 dd 3f 8d 3c 06 68 0d 3c 12 62 a7 3d 5c ea 5b 3d
       0.017242366 0.008630758 0.08173002 0.0536903
000070 2d 43 0c 3d ec 8e b5 bd ec 51 5b 3d 6f 34 d9 3d
       0.03424375 -0.08865151 0.053544924 0.10605704
000080 13 f0 1d 3e e9 2d ad bc da 02 aa bd 59 22 74 3d
       0.15423612 -0.021140056 -0.08301325 0.05960307
000090 f6 3f c6 bd f3 05 d9 3d d0 75 ad bd 9f ac 3d 3d
       -0.09680168 0.10596838 -0.084697366 0.046307202
0000a0 b1 ea 77 bd 6a 27 b6 bd d2 24 bf bd 52 34 8a 3d
       -0.060526554 -0.088942364 -0.09333195 0.067482606
0000b0 e9 1f 7d bd b7 c4 bc bc ff 22 8c bc b0 e9 a4 3c
       -0.06179801 -0.02304302 -0.017106531 0.020130962
0000c0 8f 29 0b be dd fe 81 bd 04 bd 8c 3d af 92 37 3c
       -0.13590072 -0.063474394 0.06871989 0.011204406
0000d0 c7 ad fb bc 9f 25 d7 3d 31 c6 24 bd f0 07 c3 3d
       -0.030722512 0.105052225 -0.040228073 0.09522998
0000e0 14 e1 e0 3d 4e 9e 22 3d f4 55 b4 3c 7f 75 0d 3e
       0.1098043 0.039701752 0.022013642 0.13814352
0000f0 8c 02 c5 bd f4 4e bd bd a8 59 d6 3c c9 a9 c1 bc
       -0.096196264 -0.09243575 0.026165798 -0.02364053
000100 f3 7b 3f bd b6 d3 99 bd 14 89 99 3d 03 36 da 3d
       -0.046749067 -0.07511084 0.07496849 0.10654833
000110 8d 1c 84 bd 15 0d 87 3d 97 90 3e 3d 24 e5 e9 ba
       -0.06450758 0.06594292 0.04652461 -0.0017844778
000120 15 b3 64 bd 63 36 b2 3d 2a 6c 16 3d 38 ab 0a be
       -0.05583485 0.0870178 0.036724247 -0.13541877
000130 8e 95 b3 3d 5b 83 8a 3d f4 95 a2 bd 4f 43 ba bd
       0.0876876 0.06763335 -0.079387575 -0.09094869
000140 8f ad 06 3d 63 58 e7 3d bb e8 bd bc da cd 09 3e
       0.032880362 0.11296155 -0.023182264 0.13457432
000150 1e e6 63 bc d2 df 40 3d de 2c 72 3d c1 56 d6 bb
       -0.013909845 0.04708845 0.05912482 -0.0065411036
000160 e7 cf 96 3d 3b 3c 34 3d 68 f2 ad 3d 55 49 1f bd
       0.07363873 0.044002753 0.08493501 -0.038888294
000170 af 33 23 bc 7e 65 4a 3d 9d 8a 7f bd 4e 24 8d ba
       -0.009961053 0.049413197 -0.06238805 -0.0010768266
000180 75 3f 2a 3d 22 f0 fb bc 0f d6 06 bc 68 65 00 be
       0.041564424 -0.030754153 -0.0082297465 -0.12538683
000190 fd 74 e6 bc 69 81 a6 3d cc 28 29 bd ff 94 af 3c
       -0.028131956 0.08130152 -0.041298673 0.021433352
0001a0 37 b9 fd 3d 23 39 8b 3d 2b c6 31 3c 67 41 1b bb
       0.123888426 0.06798007 0.01085047 -0.0023690106
0001b0 0b 92 9b 3d 83 56 2e 3d 7c f1 0f be f4 d5 1e bd
       0.07596215 0.042562973 -0.14056963 -0.03877826
0001c0 a7 71 0c 3d e5 08 64 bc 03 f0 41 bd 9f f5 9e bd
       0.034288075 -0.013918136 -0.047348034 -0.07761692
0001d0 3f 6e 6e 3d 4e 77 0d bd 9c 82 b3 bd f8 36 a3 3c
       0.058210608 -0.034537606 -0.08765146 0.019923672
0001e0 44 de c5 bd 08 54 b8 3c 80 ce 22 3d 6e 4b ad bd
       -0.096615344 0.022501007 0.039747715 -0.08461653
0001f0 71 16 b5 3d 4b b4 02 3e 09 91 c3 3c 1d 1f 99 bc
       0.08842171 0.12764089 0.02387287 -0.018691594
000200 15 28 a2 bd ec 6c a7 bd 55 03 9d bd 9f aa 49 3a
       -0.07917801 -0.08175072 -0.07666651 0.0007692966
000210 91 8f da bd d9 0e b0 bd 5c 6b 12 3c 5d 58 86 bd
       -0.10671914 -0.08596582 0.008936729 -0.06559823
000220 29 7b cc 3c dd f3 3f 3c a4 ec b2 bd af d5 3b bd
       0.024961071 0.011715856 -0.08736542 -0.04585808
000230 ef 19 ab 3d 63 e0 90 3c 63 5b a4 3d 00 98 a3 3d
       0.08354556 0.01768512 0.08025243 0.07987976
000240 21 61 20 bd f9 ce b5 3d 34 aa 2f bb bc 21 49 bd
       -0.03915513 0.088773675 -0.002680433 -0.049104437
000250 9b 83 d7 3c 0e f8 a5 bd b1 09 f9 bb 40 4d 1f be
       0.026307872 -0.08103953 -0.0076000323 -0.15556812
000260 b0 9b 97 3c 1f 5e 34 3d cb d2 80 bd 59 d2 ea bd
       0.018506855 0.044035073 -0.062902056 -0.11465902
000270 42 b5 9b 3d 18 ea d4 3b b1 c2 92 bc 71 a8 d7 3d
       0.076029316 0.0064976327 -0.017915102 0.105301745
000280 58 23 d1 3d 23 93 14 3d fe a0 ae 3d 4e df bf 3c
       0.102118194 0.036273133 0.085268006 0.02342191
000290 f0 10 36 3d c1 55 37 3d ba 7d 6d 3c 47 7f bc 3c
       0.044449747 0.044759516 0.014495308 0.02300991
0002a0 77 6c 48 bd 1a 8f 6e 3d 19 1f 2f 3d af 80 32 bd
       -0.048931565 0.05824194 0.042754266 -0.043579753
0002b0 b0 5f 25 bd a4 b5 a4 3d ea 52 10 3d 22 6b 38 bd
       -0.040374458 0.08042458 0.035235323 -0.045024045
0002c0 25 12 5d be 5f ae e9 bb 22 c2 28 3d 8c b1 ec 3d
       -0.21588953 -0.0071313824 0.041200764 0.11557302
0002d0 7b 9b 26 3b ed 81 ca bb 48 60 a5 3d b1 f0 f8 3c
       0.0025422263 -0.006180039 0.08075005 0.030388208
0002e0 2d b7 21 3c 8b 52 71 bd 48 b8 d7 3d 8f 01 8a 3d
       0.009870333 -0.05891661 0.10533196 0.067385785
0002f0 51 1b 11 3d 79 47 f0 3c ae ca 6d bd 83 eb 89 bd
       0.03542644 0.029330956 -0.05805462 -0.067343734
000300 26 d3 c5 3d 5d 24 29 bd 8f 56 b9 bd 87 48 47 bd
       0.09659414 -0.041294444 -0.09049713 -0.04865315
000310 4f 95 06 3e e6 61 24 bc 2d da c7 bc be a8 1b be
       0.13142894 -0.010033106 -0.024396027 -0.15201089
000320 34 b0 8d bc be 33 1f 3d b0 cb 83 bd 4e 51 93 3d
       -0.017295934 0.038867705 -0.06435335 0.07193242
000330 49 27 8e bd fd 3b f6 bd 5b 80 44 bd e4 04 ab 3d
       -0.06941087 -0.120231606 -0.04797397 0.08350542
000340 e8 ef 80 3b 8d ec 93 3c 05 fb a6 3d 48 ca 2c 3e
       0.003934849 0.018057132 0.08153347 0.16874039
000350 c1 8d a3 3d 04 1e b0 3d 36 e0 76 3b 39 38 1f 3e
       0.07986022 0.08599475 0.0037670261 0.15548791
000360 11 c5 ba 3d 13 fb 5b 3d a0 d8 c8 bd e1 d2 13 be
       0.09119619 0.05370624 -0.09806943 -0.14435913
000370 cb dc bc bd b4 e2 a0 3d 9e cb a1 3d 25 10 f0 3d
       -0.092218004 0.0785574 0.07900165 0.11721829
000380 76 7a 27 3d 23 ab 22 3a e9 c0 85 bd a2 91 a9 3d
       0.040888272 0.0006205311 -0.06530935 0.082797304
000390 30 59 d6 3d 40 52 9b bc 39 df 39 be 7c cf 93 3d
       0.1046623 -0.018960118 -0.18151559 0.07217309
0003a0 f3 1b 0b bd 38 52 dd ba 78 b1 28 3e ce f6 9e bd
       -0.0339622 -0.0016885465 0.16473949 -0.07761918
0003b0 59 b5 96 3d 02 d2 e4 3c be 70 ae bd da 15 a9 bd
       0.07358808 0.02793217 -0.085175976 -0.08256121
0003c0 d9 e2 e5 bd bd 17 89 bd 6c 8e f5 bd a7 f7 ae 3d
       -0.112249084 -0.06693981 -0.119900554 0.0854333
0003d0 bb 00 10 bd 5b 1f 2d bd 26 35 86 3d 9a cc 9c bc
       -0.035156947 -0.04226623 0.06553106 -0.01914053
0003e0 ae 5b 97 bc b2 a5 07 be 89 3c ce 3c c1 79 b4 bd
       -0.018476333 -0.13246801 0.02517535 -0.08812285
0003f0 81 e2 c9 3d df e6 d0 bc 41 18 f3 3c c0 9e fc bd
       0.09857655 -0.025500713 0.029674651 -0.12334967

fc2.bias f4 [84]
000000 5d b7 30 3d bc 9e a0 3d 0e 9d bb 3d 5c 06 8e 3d
       0.04314362 0.07842776 0.09160815 0.06934807
000010 b1 dd ef bb 11 d9 77 bb 9f eb 4f 3d d0 05 b0 bd
       -0.007320129 -0.003781859 0.050761815 -0.08594859
000020 84 37 1b bc cd b7 ae 3d 38 32 1e bd 77 5a b4 3c
       -0.009473685 0.08531151 -0.03862211 0.022015793
000030 b9 38 56 bd 5b 8b 97 3d 5b f6 8b bd 6f f5 85 3c
       -0.05230019 0.07399627 -0.06834098 0.016352383
000040 8b da 4f bd 0b 9e a1 bd 0c b3 36 bd 60 9c ca bd
       -0.05074553 -0.078914724 -0.044604346 -0.098931074
000050 08 97 d1 3d db ca 9e 3d 35 b0 1b 3d 36 0e 3c bd
       0.10233885 0.07753535 0.03800984 -0.04591199
000060 57 66 af bd 3a 2f c1 3c 06 44 bb bc d1 0b 56 bd
       -0.08564442 0.02358209 -0.022859585 -0.052257363
000070 cf 6a 2f 3d a2 15 07 bd 8c 52 db bc c1 78 88 bd
       0.04282647 -0.032979615 -0.02677276 -0.06663657
000080 b2 5e 51 3d 26 7c 16 bd 58 07 b4 3d 16 1f 85 3c
       0.0511157 -0.03673949 0.08790463 0.016250174
000090 55 82 f2 3c 0a 73 7c bd d9 ed fe 3a f8 d9 56 3d
       0.029603163 -0.061633147 0.0019449546 0.052453965
0000a0 68 d8 f7 bb 39 1c a3 bd 57 31 09 bd 49 37 42 bd
       -0.0075636394 -0.079643674 -0.03349432 -0.047416005
0000b0 49 7b 3f 3c fb 2e 1f bd a9 8e 0e 3d 17 2a 6c bd
       0.011687108 -0.038863163 0.03480402 -0.057657328
0000c0 ca 03 62 bc 9f 9b a9 3c a2 6f 1e bd e2 0c a1 3c
       -0.013794849 0.020704089 -0.03868068 0.019659463
0000d0 42 38 6d bd 91 b0 70 3b 31 a2 98 3d 64 2a 60 bd
       -0.05791498 0.0036726336 0.074528106 -0.054727927
0000e0 29 c2 86 bd b1 93 1b bd d5 55 3e bd 5c 40 6f bc
       -0.06580002 -0.037982646 -0.046468575 -0.014602747
0000f0 b2 ab 89 3d 11 8b 1b bd e1 d1 bd 3d 1c d1 94 3d
       0.067222014 -0.03797442 0.09268547 0.07266447
000100 f1 96 2b 3d b1 ba 68 3d 30 e0 27 3d 11 f2 7d bd
       0.041891996 0.056818668 0.040985286 -0.06199843
000110 3d 24 82 3d b5 7a 23 bd a3 11 a4 bd 2d 41 d0 3d
       0.06354568 -0.039911944 -0.080111764 0.10168681
000120 9c 2c 46 bd d5 69 87 bb 5e 64 b5 bd 9c 49 d7 bd
       -0.048382387 -0.004132489 -0.08857034 -0.10512087
000130 70 5e 14 3d 01 72 1f 3d 85 40 a2 3d c1 bc 1c bd
       0.036222875 0.038927082 0.079224624 -0.038265947
000140 bf 9d 81 bd 65 5f 00 bd 29 35 db 3d f4 ac 9f 3d
       -0.06328916 -0.031340975 0.10703499 0.0779666

fc3.weight f4 [10, 84]
000000 91 53 3a be 2c 8b 0a be 3b 8e bf bd a1 5f 79 3d
       -0.1819594 -0.13529652 -0.093533 0.060882214
000010 8c bb db bc ce 7a e8 3b 30 78 53 be 2c 63 2c bd
       -0.026822828 0.0070947176 -0.20651317 -0.042086765
000020 f4 13 f8 bd 38 21 5d be 29 77 b0 bc e5 b3 34 bd
       -0.12113181 -0.21594703 -0.021541195 -0.044116873
000030 3c 27 53 bc e1 6e e4 bb cf 8f 14 3e dd 8b 41 3d
       -0.012887772 -0.0069712256 0.14507984 0.047252525
000040 53 b4 e4 bd 32 5c af 3c 80 23 dd 3c 91 e6 b7 3d
       -0.111672066 0.021406267 0.026994467 0.08979524
000050 90 ef 25 bd c3 e2 01 be 49 da 49 3e e9 6f 46 bd
       -0.040511668 -0.12684159 0.19712175 -0.04844657
000060 53 55 88 bd fc db 70 3c 20 27 57 be f8 99 0c 3d
       -0.06656899 0.014700886 -0.21011019 0.034326524
000070 f4 9e 75 be cc 4c d9 3d 77 d8 87 be e2 68 7c be
       -0.23986417 0.10610351 -0.26532337 -0.24649385
000080 0e 65 df bd 22 a0 41 be 28 a2 5d 3b 57 c2 68 be
       -0.109079465 -0.18908742 0.0033818576 -0.22730385
000090 d4 c2 4e 3e 92 af 83 3c 10 7c d3 bc a9 e0 09 ba
       0.20191509 0.01607493 -0.025815994 -0.0005259612
0000a0 d2 12 cd 3d 30 a2 45 bc 65 b2 11 bd 35 47 42 3e
       0.10013355 -0.012062594 -0.03557052 0.18972476
0000b0 08 12 ba 3d ea 45 9b 3d 7d 04 4c be 95 ee a5 bd
       0.090854704 0.075816944 -0.19923587 -0.081021465
0000c0 ae 7c 07 be 96 55 d6 bd c7 0a 06 be 1a e6 8a 3c
       -0.13231155 -0.10465543 -0.13090049 0.016955424
0000d0 c5 a5 84 3d b8 6b 94 bd 5a 40 df 3d 1e a0 c2 bd
       0.064769305 -0.07247108 0.10900946 -0.09503196
0000e0 64 04 70 3e 2e 25 47 3e a3 7e 03 bd 05 a4 ee 3d
       0.23439175 0.19447777 -0.032103192 0.11652378
0000f0 6a 67 28 3e 59 36 1b 3e be 36 eb 3d cc f1 32 be
       0.164457 0.1515745 0.114850506 -0.1747505
000100 5c 86 ef 3d 38 94 e0 bd 63 89 c6 bb e9 89 09 3e
       0.11695549 -0.109657705 -0.0060588582 0.13431515
000110 1f b2 a5 3c b9 19 3e be ce e2 3a bd 6a 27 b6 3d
       0.020226536 -0.185645 -0.045626454 0.088942364
000120 18 48 7a 3e e6 be bc 3c a1 d0 f1 bc 67 03 8e 3d
       0.24441564 0.023040246 -0.029518427 0.06934243
000130 d8 8f 78 3e ae eb 00 be 4f 63 96 bd 02 6d c5 3d
       0.24273622 -0.12589905 -0.0734316 0.09639932
000140 01 6d 2b 3e 64 2d 19 bd 14 97 02 3e 7a 95 7f 3d
       0.167408 -0.037396803 0.12752944 0.06239841
000150 19 78 4d bb 87 a9 0f be df 16 82 3e 6a af fd bd
       -0.0031352101 -0.14029513 0.25408074 -0.12386973
000160 85 bf 9d 3e 22 65 7a be 79 12 52 3e 40 e1 20 3d
       0.3081018 -0.24452642 0.2051486 0.039277315
000170 59 27 7f be 75 43 64 bd 45 ec 81 3d a6 03 76 3e
       -0.24917354 -0.055728395 0.06343893 0.2402483
000180 2d 77 bd 3d 06 83 8b be c4 b8 3f be 19 f8 76 bd
       0.092512466 -0.272484 -0.18722826 -0.060295198
000190 54 93 c6 3d 4a 39 b6 3d 91 69 df bd cf 1f 9a 3d
       0.09696069 0.08897646 -0.10908807 0.07525598
0001a0 32 d1 a1 3c f1 02 ab 3e f0 80 6d be 29 2f b5 bd
       0.019753072 0.33400682 -0.23193717 -0.08846886
0001b0 1d 3a c3 bd b1 1f ce bd 9b 36 c7 3d c9 a2 c6 3c
       -0.095325686 -0.100646384 0.09727212 0.024247544
0001c0 69 9f 09 be 2c 5a e4 bc 49 83 a3 3a 6c 59 5b bc
       -0.13439716 -0.027875029 0.0012475039 -0.013388019
0001d0 88 15 79 3e 28 f5 b9 bd 52 66 18 3e d1 fc f5 bb
       0.2432462 -0.09079963 0.14882782 -0.0075069447
0001e0 80 d5 3d be bf 66 0c bd b1 35 11 bb eb dc 05 3e
       -0.18538475 -0.034277674 -0.0022157247 0.13072555
0001f0 4f ba 24 bd ed 6c 88 bd e8 05 b4 bb 93 58 34 be
       -0.04021674 -0.06661401 -0.005493868 -0.17611913
000200 2d af 64 3e 1c 6c 36 be 5b e5 28 3e 91 59 ec 3d
       0.2233245 -0.17814678 0.16493742 0.11540521
000210 ca af 76 be 81 ff 46 3d f6 24 7f bc b9 85 2f 3e
       -0.24090496 0.04858351 -0.015572777 0.17140855
000220 18 b1 68 3d 06 b6 16 be 83 52 85 bd cd 44 ae bd
       0.056809515 -0.14717874 -0.065098785 -0.085092165
000230 3f 77 5f 3d c2 59 82 bd 6e 59 2f 3d 8b 03 b7 bd
       0.05455708 -0.06364776 0.042809896 -0.08936223
000240 df 77 5b 3d 47 22 bc bd 1c 09 44 be 05 44 07 3e
       0.053581115 -0.091862254 -0.191441 0.13209541
000250 5d d6 0d be c2 d8 bd 3d 8b 66 8f be f9 9c 4f bd
       -0.13851304 0.09269859 -0.28007922 -0.05068681
000260 19 dd 88 bd 5c 69 19 be 07 1b b4 3c 20 97 d6 bd
       -0.06682796 -0.14981598 0.021985544 -0.104780436
000270 e7 eb 5b bd b5 c4 51 bd 4a d2 0c 3d a2 93 c6 3c
       -0.05369177 -0.051212985 0.034380235 0.024240319
000280 48 19 17 bd 66 d4 97 3d b7 37 81 3e 69 1a 59 bd
       -0.036889344 0.07413559 0.2523782 -0.053003702
000290 83 e9 5f 3e 39 c0 99 3d e3 52 e0 bd 65 f8 8a bd
       0.21866421 0.07507367 -0.109533094 -0.06785659
0002a0 a3 57 60 3e 15 bb 48 3d ee 2c 7b be 3c 36 62 3d
       0.21908431 0.04900654 -0.24528858 0.055227503
0002b0 46 17 47 3e f9 64 3f 3e 06 80 61 3e 60 a2 5e bd
       0.19442472 0.18690862 0.22021493 -0.05435407
0002c0 50 e0 01 3e ff c3 c5 bd 4b 9a 96 3d 2a a2 06 3e
       0.12683225 -0.09656524 0.07353648 0.13147798
0002d0 d7 a7 03 be 25 87 24 be ea 8d 4c bd 52 9f c3 3b
       -0.12856995 -0.16067179 -0.049940027 0.00596992
0002e0 1a 70 0a be 6e 2d 73 3d 5c e5 a6 bc 6c ef 93 3c
       -0.13519326 0.059369497 -0.020373039 0.018058501
0002f0 c4 9c 2a be c4 7b 2a bb c3 a3 34 3d 40 ab 5c bd
       -0.16661364 -0.0026013711 0.044101488 -0.053874254
000300 c0 f7 4f bd 50 c6 f7 bc 45 44 21 3c 44 06 db 3d
       -0.050773382 -0.03024593 0.009842937 0.106945544
000310 15 25 2f 3e 67 6d 14 3e 3a f5 15 be 0e 1e 62 be
       0.1710399 0.14494859 -0.14644328 -0.22081777
000320 9a 6e 50 3e bc 44 1c 3e 82 ee f4 bd 6e bc ac 3c
       0.20354691 0.15260595 -0.11959554 0.021085944
000330 93 4f 8a bb 02 1a 16 3e 16 4a e5 bd 36 2d 41 be
       -0.004220912 0.14658359 -0.111957714 -0.18864903
000340 90 b9 31 3e c8 ce 24 be 7c 02 ac 3c e7 07 26 3d
       0.17355943 -0.16094506 0.020997278 0.04053488
000350 8e 93 89 be 82 65 8f ba f6 7d 99 be 6b 86 d2 3c
       -0.26870388 -0.0010940286 -0.29978913 0.025698861
000360 47 8c 74 3d 2b 7e 13 3e 44 ec e7 3c a1 bc b2 3d
       0.05970409 0.14403598 0.028310902 0.08727384
000370 f1 b6 c8 bd de f5 29 bd a1 0a c6 bc 64 4a 94 3d
       -0.09800518 -0.041494243 -0.02417499 0.072407514
000380 2a 60 57 be e3 b3 7c 3d 8b b0 9d bd a4 79 62 be
       -0.21032777 0.06169499 -0.076996885 -0.22116715
000390 4d e0 b0 bc ed 89 94 be ec 2d ea bd a4 70 08 bd
       -0.02159133 -0.2901148 -0.1143454 -0.033310547
0003a0 43 c0 ca bd 14 99 a8 bd ed 0e 50 be af 31 27 3e
       -0.09899952 -0.08232322 -0.20318194 0.16327547
0003b0 ca 7a 6c 3e 95 38 d0 3d 3b 71 4c bd 9d b2 87 3e
       0.23093715 0.10167042 -0.049912672 0.2650346
0003c0 d9 54 85 3e 3a 2e 49 bd 46 0c c8 3d 22 9d 83 bd
       0.26041296 -0.04911635 0.09767966 -0.06426455
0003d0 c5 6f 1d be 06 9e e7 3d c2 13 68 3e 01 02 fc bc
       -0.15374668 0.113094375 0.22663787 -0.030762674
0003e0 95 b0 12 be 4d c8 1b 3e 62 5f a3 bd 20 84 cd 3e
       -0.14325173 0.15213127 -0.07977177 0.40139866
0003f0 90 37 6c 3e f8 ac 62 3e c6 48 6c be f4 3d 3b 3e
       0.2306807 0.22136295 -0.23074636 0.18285352

fc3.bias f4 [10]
000000 5b 94 40 3d 8f 13 e2 3d a3 2f bc 3d 05 b7 c1 3d
       0.047016483 0.11038887 0.091887735 0.09458736
000010 5e 7c 85 bd b7 ed 09 3d 53 06 8b bd 49 d1 da bc
       -0.06517862 0.03367397 -0.067883156 -0.026711123
000020 5c f2 60 bc 01 78 54 3d
       -0.013729658 0.051872257
