sy8/model/final.pth (torch, 180719 bytes, 10 tensors)

conv1.weight f4 [6, 1, 5, 5]
000000 15 0a a0 3e d3 d4 c0 3e 00 07 47 3e 4f df cf 3e
       0.31257692 0.37662372 0.19436264 0.40600058
000010 fe 76 d8 3d 9c f8 84 3e 99 fe 38 3e dd cf d4 3e
       0.10569571 0.25970924 0.18065871 0.41564837
000020 4d 70 e2 3e aa 27 01 3d 46 69 d4 3e 8c 52 ab 3e
       0.44226304 0.031531967 0.41486567 0.33461416
000030 b2 68 e6 3e 20 ba 90 3e 77 74 8b 3e 9e 20 36 3e
       0.4500175 0.28267002 0.27237293 0.1778588
000040 98 9c cf 3e 15 c1 8b 3e 2e e4 d4 3d af 1b 45 3e
       0.4054916 0.27295747 0.10395084 0.19248842
000050 9d ad c7 3c 08 59 00 3e 06 a1 73 3d 44 65 7b 3e
       0.024374777 0.12533963 0.059479736 0.24550349
000060 0f e3 8f bd 6c 13 75 bd e0 46 72 bc bd 06 a1 bd
       -0.0702573 -0.059832975 -0.014787406 -0.07862613
000070 62 e8 26 3d 90 04 50 be 96 39 6e 3e 0f 53 cf bd
       0.04074896 -0.2031424 0.23264155 -0.10123264
000080 52 d4 66 3e 9c e9 a3 3d ed ae 4c bd 3f b1 54 3e
       0.22541931 0.08003542 -0.04997151 0.20770739
000090 63 c2 0c 3e e3 cb 89 3e 6a 3c d4 3d e8 1b 5e bc
       0.13746028 0.26913366 0.103630856 -0.013556458
0000a0 0c 45 24 3e 19 7b 98 3d 18 3a 56 3e 2e 20 8f 3e
       0.16041964 0.07445354 0.20920599 0.2795424
0000b0 0c 0d 43 3e 61 2f 43 3c d8 6b 6b 3e 6c 4e 11 3e
       0.19047946 0.0119131515 0.22990358 0.14190072
0000c0 c0 29 43 3e c2 8f 44 bd b0 91 3a be 74 ca dd bc
       0.19058895 -0.04798866 -0.18219638 -0.027074076
0000d0 6b 92 a5 bd c8 d9 6f 3e b8 fb c8 3d 13 06 ef 3d
       -0.08084568 0.2342292 0.098136365 0.116710804
0000e0 3c e4 04 3e 3b 49 9b 3d f4 83 5d 3e fa e1 f4 bd
       0.1297769 0.07582327 0.21632367 -0.11957164
0000f0 15 bd 8f 3d f4 42 60 bd 68 15 0f 3e 5e c1 c4 bc
       0.070184864 -0.05475135 0.1397301 -0.024017986
000100 02 c7 8c 3d c7 a9 ff 3c b4 d8 7d 3e e1 ec 5b bd
       0.06873895 0.031208886 0.24789697 -0.053692702
000110 3d 5f b8 bd 90 0d fb bd 5f 54 80 3e ec 34 09 3e
       -0.0900254 -0.12258446 0.2506437 0.13399094
000120 9a 39 75 3e a6 74 18 be fb 0d 56 be c4 1f 27 be
       0.23947755 -0.14888248 -0.2090377 -0.16320711
000130 31 61 07 be 21 07 cc 3d 70 20 d2 3d f1 e9 49 3e
       -0.1322067 0.09962297 0.10260093 0.19718148
000140 34 75 d5 bd 52 e4 f9 bd 5a a9 0c 3e b9 2a 2e bd
       -0.10422745 -0.12201752 0.13736477 -0.042521212
000150 38 2b 1b 3e 24 cc 3d bd a9 58 08 3e 1d 62 f7 bd
       0.15153205 -0.04633726 0.13315071 -0.120792605
000160 0c 87 83 bd 57 39 af 3d ed b5 2e 3d 23 6b 12 bd
       -0.064222425 0.085558586 0.042653967 -0.035746705
000170 e6 3a 15 3e 65 e8 25 3e ed 84 03 be 0c eb d9 bd
       0.14573249 0.16201933 -0.12843676 -0.10640535
000180 93 08 45 3e 29 a5 56 bd 52 25 65 bd 11 c5 3c be
       0.19241552 -0.052403603 -0.055943795 -0.1843455
000190 05 a0 0b be 92 e9 f0 3b a7 4f 93 bd ec b4 3e be
       -0.13635261 0.0073520625 -0.07192927 -0.18623704
0001a0 c9 3a 26 bd 74 44 2f be 57 c3 62 be 24 e3 25 be
       -0.040583406 -0.17115957 -0.22144829 -0.16199929
0001b0 03 82 64 be ac 9b 37 be 5d a8 27 3e 94 7a 5b bc
       -0.2231522 -0.17930478 0.16372819 -0.013395924
0001c0 10 06 36 3c ff b9 70 be a7 e9 39 be b6 02 c5 bd
       0.011109844 -0.23508452 -0.18155538 -0.09619658
0001d0 2c 4f 6c bc e4 f8 65 be ac cb 09 be 84 80 29 be
       -0.014423173 -0.22458225 -0.13456601 -0.16552931
0001e0 45 04 a1 bc 50 a0 e9 bd fe 46 77 bd bc a8 3a be
       -0.019655356 -0.1140753 -0.060370438 -0.1822843
0001f0 ae 61 33 be 8d e3 fd bd ea 5f 96 bd c9 b1 24 be
       -0.1751773 -0.123969175 -0.07342513 -0.16083445
000200 8c 87 2a 3e 4e 01 19 bd 8f 5a 29 3e 34 de 71 3d
       0.1665327 -0.03735476 0.16538452 0.0590498
000210 93 7d 2a be bc 21 15 3e b7 aa 46 bd 2c 1d a8 bd
       -0.16649465 0.1456365 -0.04850265 -0.08208689
000220 1c c5 2a be 62 78 42 be 83 fe 90 3d 7f 0d 0e bd
       -0.16676754 -0.18991235 0.07079794 -0.03468084
000230 ec 31 91 3d dc 19 29 be a5 2a 21 3e 7c ad 09 be
       0.070896 -0.16513771 0.15738924 -0.13445085
000240 24 ba e5 bc ac a7 0c 3d 76 1d d2 3d d9 09 2d 3e
       -0.02804286 0.03433959 0.102595255 0.16898288
000250 d2 14 42 3e e5 df 20 be
       0.18953255 -0.15710409

conv1.bias f4 [6]
000000 3f 7f 7c 3e a3 2b 46 bc 5f 53 46 3c af ea 0c be
       0.24657916 -0.012095365 0.012104838 -0.137614
000010 11 e4 96 3e 37 f8 16 be
       0.29470876 -0.14743124

conv2.weight f4 [16, 6, 5, 5]
000000 5e 0c bf 3d 84 5b 8a 3d 69 0a c1 3c 99 f4 a0 bd
       0.09328531 0.067557365 0.023564534 -0.07859153
000010 88 2f 3c 3d aa 98 a4 3d 4b 51 33 3d a4 39 d7 bd
       0.045943767 0.08036931 0.0437787 -0.10509041
000020 da 69 f3 bc 3c 4e 3f bd 22 a0 91 3c 10 31 e7 3d
       -0.02971356 -0.04670547 0.017776553 0.11288655
000030 53 73 f5 3b 4d 3b a4 bd 45 f4 55 bd 3f 71 d6 3c
       0.0074905544 -0.08019123 -0.052234907 0.026177047
000040 b5 38 ae 3d ed 3d 09 3b 50 df 1e bd 6d d3 a0 bc
       0.0850691 0.0020941452 -0.038787186 -0.019632066
000050 3f b3 58 bd f5 33 4a 3d 45 92 b9 3d e6 c6 63 bd
       -0.052905317 0.049365956 0.09061102 -0.055609606
000060 47 cb ee 3c ba c4 77 3d 75 bf a4 3c 96 e0 3e bd
       0.029149665 0.060490347 0.020110825 -0.0466009
000070 c8 5b 8f 3c c1 a5 f8 3c 6f 09 58 3d ef 1d 0f 3a
       0.01749982 0.030352475 0.05274337 0.00054594775
000080 da 6d fe bc 04 aa 19 bc 66 9e a9 bc 6c 04 06 bc
       -0.03105824 -0.009378914 -0.020705413 -0.008179765
000090 67 77 99 3d 0f c2 a8 3d f7 a3 b6 bb 75 09 7a bc
       0.07493477 0.08240139 -0.0055737454 -0.015261044
0000a0 8e 00 bc 3b c6 80 21 3c 33 9c 17 3d 6c c7 0c 3d
       0.005737371 0.009857362 0.037014198 0.03436987
0000b0 92 88 8e bd ae 4a fd bc 5b 4d 95 3d fa b7 25 3d
       -0.069596425 -0.0309194 0.07290145 0.040458657
0000c0 17 23 96 3b ec fc 39 bd 8f 5c 0b bd 18 78 4d bd
       0.0045818198 -0.04540722 -0.034023818 -0.05016336
0000d0 14 fd 95 bc 94 04 78 3c 01 0e 1a 3d 1f b7 3e 3d
       -0.018309154 0.01513781 0.03761101 0.046561357
0000e0 5c f1 79 bd e4 62 4b bd 86 0f da bc 27 1d 93 3d
       -0.061021194 -0.049654856 -0.02661873 0.07183295
0000f0 26 91 6e 3c a7 b8 aa bc 04 c4 f4 3c c8 f0 0a bd
       0.014560973 -0.020840002 0.029878624 -0.033921033
000100 88 69 48 bd 45 e3 7c 3d 67 41 24 bd aa 8f 93 bc
       -0.048928767 0.06174018 -0.040101435 -0.01801284
000110 7d d8 9d bd 2c 45 7b 3d 3f 8b 80 3d 1a 7a ed 3c
       -0.077073075 0.061345264 0.06276559 0.028988887
000120 0b b4 66 bd 20 6f 9e bd 41 c3 7b bd ce 11 88 3d
       -0.056324046 -0.07736039 -0.061465506 0.06644021
000130 2f 9c 38 3d 03 e2 8a 3d d3 94 17 3d f6 0d 87 3c
       0.045070823 0.067813896 0.037007164 0.01648615
000140 a6 4a 8f 39 1b 66 82 bd e3 39 9c bd 1c ea a7 bd
       0.00027330703 -0.06367131 -0.076282285 -0.0819895
000150 26 65 09 3d 9c 15 1c bd eb d2 ac bc 7a 63 5b bd
       0.03354373 -0.038106546 -0.021096667 -0.053561665
000160 c8 08 85 bc 68 ee 5f bd 8e ba 42 bd 7d 62 d2 3c
       -0.016239539 -0.05467072 -0.047541194 0.025681728
000170 25 9f de bc 50 38 51 3d 5b f7 c3 bc 0e 95 5f bd
       -0.027175495 0.051079094 -0.02392166 -0.05458551
000180 c9 9e 2e bc b4 2a 1e bd 82 28 c7 bc c9 72 9d bd
       -0.0106579745 -0.038614944 -0.024311308 -0.07687909
000190 41 a8 31 3d cc d8 5e bd 1a d1 59 3d e4 28 61 3d
       0.04337335 -0.054405972 0.05317793 0.054970637
0001a0 80 66 92 3d 53 cd 84 bd a7 7a 83 3d 71 e7 b4 bc
       0.071484566 -0.06484475 0.064198785 -0.022083016
0001b0 12 13 53 3d ba 1f b7 3d 32 f5 5b bc 17 67 26 3b
       0.05153186 0.08941598 -0.013425158 0.0025391036
0001c0 db f3 05 bc 31 20 5f bd 9b f1 3d 3d 6b a2 a6 bd
       -0.008175815 -0.05447406 0.04637299 -0.081364475
0001d0 ec c7 4d 3d 24 22 82 3d 08 e9 a6 3d 74 de 87 bc
       0.05023949 0.06354168 0.08149916 -0.016585566
0001e0 e3 9a 84 bd 7f c3 92 3c 24 a9 33 3d 1c eb a6 bd
       -0.06474855 0.017915485 0.043862477 -0.08150312
0001f0 fc 1b 8b bc c1 a6 40 bd 2b 79 c3 bb 42 b9 2a bd
       -0.016981117 -0.04703403 -0.005965372 -0.041680582
000200 5b 63 15 bd 94 b9 dd bc 83 41 9e bd 2c bd 8a 3d
       -0.036471706 -0.02706603 -0.07727339 0.06774363
000210 59 58 8d 3d 70 29 48 bc 52 61 04 bc 4f 55 0c bd
       0.069016166 -0.012216911 -0.008079844 -0.034261044
000220 57 7b 97 bd 5d 3b 9f bd c9 a7 09 3d 5e 16 2e bd
       -0.07396572 -0.077749945 0.033607278 -0.0425018
000230 ab bd 5b bd e1 5d 03 bc 63 63 df bc 90 e3 cb bc
       -0.05364768 -0.008017988 -0.027269071 -0.024888784
000240 25 c4 87 3b fa bf 8c bc 97 0c eb bc ca 02 21 bd
       0.0041432553 -0.017181385 -0.028692527 -0.0393093
000250 7f a5 86 bd cb 6d 8e 3d a6 da 80 bc c8 7b 91 3c
       -0.065745346 0.06954535 -0.01572926 0.017759219
000260 5f 5b b3 bc 5a 3f e5 3c da 07 b2 3d a4 0d 4f 3d
       -0.021894155 0.02798431 0.08692904 0.050550118
000270 ca 0f 62 bd 2f 95 78 3d 63 f9 c2 3d 38 55 a1 3c
       -0.05519084 0.060689148 0.09520223 0.019693956
000280 a8 cb 64 3d 17 12 c3 3d c3 f7 e9 3b 17 04 af 3c
       0.055858284 0.09524935 0.007140131 0.021364255
000290 bb b2 6a bd c4 6a 35 bc af 02 90 3d 26 6c 4e 3d
       -0.057299357 -0.011072818 0.07031762 0.050396107
0002a0 a8 25 32 bd 51 76 47 bd 6b 59 16 bd cf 21 86 bd
       -0.043492943 -0.04869682 -0.03670637 -0.06549417
0002b0 40 65 4b bd e3 e3 55 3a 5a 8f aa 3d c7 8f cf 3c
       -0.049657106 0.0008159263 0.083281234 0.025337113
0002c0 bc b3 61 bd c0 ea 63 bd ed 59 46 3d fd 96 76 bd
       -0.05510305 -0.055643797 0.048425604 -0.060202587
0002d0 fb 59 e9 bb 73 0b 3c 3d b3 64 f1 bc 7a fc ee bb
       -0.007121322 0.045909356 -0.029466962 -0.007293281
0002e0 0f 4e 19 bc 86 2a ab bc 58 d1 26 bd 49 de 8e bd
       -0.0093569895 -0.0208943 -0.04072699 -0.06975991
0002f0 ce e7 82 bd 19 7d 23 bd 4f ac aa 3d ed 64 16 bd
       -0.063918695 -0.039914224 0.083336465 -0.036717344
000300 16 4c 55 bd a0 34 d2 3c 25 cf 03 3d 3a 5b 5c 3d
       -0.052074514 0.02565986 0.03217997 0.053797938
000310 5f 65 8e 3d f0 8c 5c 3d ea 72 8f bd 9b 8f 93 3c
       0.06952929 0.053845346 -0.0700434 0.018012812
000320 06 a0 42 3d ae c2 53 bc 4a 9a 33 bd 73 d6 b4 3d
       0.04751589 -0.012924833 -0.043848313 0.088299654
000330 c2 fc fb bc c5 89 4e bd cc 2f 96 bd 6f b6 6a 3c
       -0.030760173 -0.050424356 -0.07333335 0.014325722
000340 8c ee 2b 3d 81 09 66 3c a4 c2 83 3c 88 a7 66 bd
       0.041975543 0.014040352 0.016084023 -0.056312114
000350 c4 60 92 bd 45 22 a9 b9 e6 b9 95 3d b1 29 56 3d
       -0.07147363 -0.00032259725 0.07310848 0.052285854
000360 5b e5 26 bd 26 c2 16 bc ff a9 77 bd c3 54 10 bd
       -0.040746074 -0.009201562 -0.060464855 -0.035237085
000370 f3 f1 a8 3c 36 48 48 3d b2 dc 8e 3d 9e 83 91 bd
       0.020623183 0.04889699 0.06975688 -0.07105182
000380 00 03 7d 3d cf 4f 76 bd 33 63 df 3c f1 80 91 3d
       0.06177044 -0.060134705 0.027268982 0.07104672
000390 d2 7d 7c 3b d5 6d 95 3d 3c 0e 92 bd fb 6a f9 bc
       0.0038527143 0.072963394 -0.07131621 -0.03044652
0003a0 e2 13 51 3d 8d 0f 93 bc 6e f7 94 bc e6 a1 05 bd
       0.051044352 -0.017951751 -0.01818439 -0.0326251
0003b0 fc 29 75 3d 64 6f 29 3d c3 7a cc 3c d9 ac 3a bd
       0.059854493 0.041365996 0.024960881 -0.045574997
0003c0 23 b4 82 bd af 86 4a 3c 33 61 d1 3c df 96 16 bd
       -0.063820146 0.012361213 0.025559044 -0.036764976
0003d0 28 20 a5 bc 3f b7 66 3d 15 fa 0a 3c 39 f9 d6 3b
       -0.020156935 0.0563271 0.008482476 0.0065604714
0003e0 56 77 8b bc 5e 8f 90 bd 0d a8 9b bd 5a b4 0a bd
       -0.017024677 -0.07058595 -0.076004125 -0.033863403
0003f0 0b cf 11 bd ee e5 f6 3c 7e 8a 94 bc a2 c1 e5 bc
       -0.035597842 0.030138936 -0.018132444 -0.028046433

conv2.bias f4 [16]
000000 42 f3 90 3b 17 fe 1d 3d 3a 17 46 3d bb fb 54 3c
       0.00442353 0.038572397 0.048361994 0.01299947
000010 03 fc 85 bc ef 19 86 3d f3 b0 9d 3d 2b 4b e5 3c
       -0.01635552 0.06547915 0.07699766 0.027989944
000020 3b 2f af bc 3b 48 cc 3c 8b d5 b5 3c 96 f1 b0 3d
       -0.021384826 0.024936786 0.022196552 0.08639829
000030 be c4 e6 3c 77 fe a6 3c 78 e7 7e 3c 42 0e a9 3d
       0.028169986 0.02038501 0.015558116 0.082546726

fc1.weight f4 [120, 256]
000000 64 96 8f ba b0 1f 5b 3d a3 fa 07 3d c4 96 2c bd
       -0.0010954854 0.053497016 0.03319801 -0.04213597
000010 a8 d0 07 ba 1a 33 63 bd ef 54 70 bd 30 79 92 3c
       -0.00051809335 -0.055468656 -0.05867475 0.017880052
000020 57 18 83 3c d2 dd 46 bb 55 0f 4f 3d 04 79 1a bd
       0.016002817 -0.0030344618 0.05055173 -0.037713066
000030 ff f6 d5 bc ff 9c 12 bc 52 8c fb ba 8c db 08 bc
       -0.026118753 -0.008948564 -0.0019191599 -0.008353125
000040 86 54 66 3d 96 ee e6 bc e1 eb 08 bd 06 ea 73 3b
       0.05623295 -0.028189939 -0.033428077 0.0037218346
000050 48 bf 4d 3d c8 31 b0 3c d5 6b 07 3d 0e 74 3a 3c
       0.05023125 0.021508113 0.03306182 0.011380209
000060 23 aa 65 3d aa 90 0e 3d 0e c0 28 3d 6d 2c 0e bc
       0.05607046 0.03480593 0.041198783 -0.008677584
000070 8f f9 59 bd 05 ac fb bc 3e 59 f4 3c ff 96 36 3d
       -0.053216513 -0.030721674 0.02982771 0.044577595
000080 5a 04 9d bc c2 dc 75 3d 5b 1e 93 3c 40 ad 66 3b
       -0.019167114 0.060024984 0.01795881 0.003519848
000090 ba d8 67 3b f7 2a 79 bc cb 50 64 3d 9b 08 c3 3b
       0.0035376982 -0.0152079975 0.055741113 0.0059519536
0000a0 22 04 10 3d b7 70 87 bd e8 7f de bc 72 1f 74 3c
       0.03516019 -0.066132955 -0.0271606 0.014900075
0000b0 da 0b 55 3d e8 8e 24 3d fb 1e 65 3c 07 dc 86 bd
       0.052013256 0.04017535 0.013984437 -0.06584936
0000c0 22 83 57 39 ad 79 4c bd 80 9f 6a bd cb 6d e7 3b
       0.00020552849 -0.049920727 -0.057281017 0.007062649
0000d0 66 7a 0e bd d4 e3 80 3d 02 6d d1 bc a8 07 b4 3c
       -0.034784697 0.06293455 -0.025564674 0.021976307
0000e0 91 bb 14 3d 44 b3 7e bd 24 5a 22 3d 7e 33 81 b8
       0.03631169 -0.06218268 0.039636746 -6.1607905e-05
0000f0 82 12 ff 3c d8 36 61 3d aa 9b b9 bc 2b e2 dc bc
       0.031136755 0.054983944 -0.022657234 -0.026963314
000100 df 9f 42 3d 02 df 3c 3b b9 7b 21 bc dc e6 36 3d
       0.047515746 0.0028819446 -0.009856158 0.04465376
000110 e6 d5 06 bd 5b bf 99 bb e6 84 5b 3d 93 fe cf 3c
       -0.032918833 -0.004692001 0.05359354 0.025389945
000120 10 1e 2c bd eb 6e a4 3c bf 2b 24 bd ea d3 11 bd
       -0.042020857 0.020072421 -0.040080782 -0.035602488
000130 a8 e9 31 3d 69 cb 2d bc 0b ea 07 bd bf 2a ba 3b
       0.043435723 -0.010607579 -0.033182185 0.0056813653
000140 22 c8 8c 3c c4 ab 24 bd 29 2f 3e bd 86 94 80 bd
       0.017185275 -0.04020287 -0.046431694 -0.062783286
000150 88 3d 73 3c af c5 37 bd 8f c3 6d 3c 3d 9a 85 bb
       0.014846213 -0.04486626 0.014511957 -0.0040772245
000160 be c5 26 bd e4 c4 9e bc c7 dc 7d bd ca ee 10 bd
       -0.040715925 -0.019380994 -0.061978128 -0.035383977
000170 81 7c 6d ba 64 c1 55 bd 65 87 63 bd c9 22 48 3d
       -0.0009059385 -0.052186385 -0.055549044 0.0488613
000180 11 61 15 3c 62 f7 a3 bc 51 f0 f8 3a 2f 11 44 3d
       0.009117381 -0.020015422 0.0018992518 0.04786795
000190 87 73 3d bd 81 51 be bc e3 85 4a bd 5f 16 b4 3b
       -0.046252754 -0.023232223 -0.04944409 0.005495831
0001a0 86 3a 65 bb 71 f5 6b bd 08 43 c4 3c 42 05 43 bd
       -0.003497751 -0.057607118 0.023957744 -0.047612436
0001b0 f4 40 76 3d 71 84 0c bd a9 f5 17 3b f4 6d 41 3c
       0.060120538 -0.034305993 0.0023187196 0.011806
0001c0 2e ed d7 bc 22 e6 65 3d 02 6a 22 bd 84 50 8e bb
       -0.026358213 0.056127675 -0.03965188 -0.0043430943
0001d0 b4 1b 19 bd bc b2 11 3d 4b 27 64 3d 2b a9 8a 3d
       -0.037379935 0.035570845 0.055701535 0.067705475
0001e0 ec 6a c2 3b 81 c0 78 bd 9f d3 3d 3d 98 b0 e6 3c
       0.0059331562 -0.06073046 0.046344396 0.028160378
0001f0 74 84 14 3d 0d 48 1b bd 88 59 4e bc db 8c 48 bd
       0.03625913 -0.03791051 -0.012594588 -0.048962455
000200 7e 8c 7c 3d 61 59 8d 3c d1 c0 01 bd 44 a5 7d 3c
       0.06165742 0.017254533 -0.031678025 0.015481297
000210 1f 2d 03 bd e0 44 43 bc 94 73 4a 3c ca 9f 14 bd
       -0.032025453 -0.011918277 0.012356658 -0.0362852
000220 cd d9 52 3c f0 61 16 bd 87 fa 6e 3c 4a dc 61 bd
       0.012869311 -0.036714494 0.014586098 -0.055141725
000230 e2 d9 64 3c ae 28 81 3d 9a 37 61 3d 1f a1 a8 3c
       0.013967963 0.06306587 0.054984666 0.020584641
000240 38 d2 57 3d 2a 15 94 3d 14 51 e3 3c c9 15 dd 3c
       0.052690715 0.07230599 0.027748622 0.026987927
000250 05 a8 44 3c b3 10 6c 3d f3 37 5e 3d 9d 04 7b bc
       0.01200295 0.057633113 0.054252576 -0.015320924
000260 0a 77 22 bb 81 6b 1a bd fe 9d 49 bc 69 b4 72 bd
       -0.002479019 -0.03770018 -0.012305735 -0.059254084
000270 89 ea ca 3c 34 61 74 bc 7f ae b2 3c f7 3a cb 3c
       0.024770038 -0.014915753 0.021811722 0.02480839
000280 ad cf 00 bd 02 f8 ec 3c 4f 17 9a 3c ba 5d 6e bd
       -0.031448055 0.028926853 0.018809943 -0.058194853
000290 02 aa 89 3d 89 cc 6d 3d fd 00 2e 3d 46 da b7 b9
       0.067218795 0.058056388 0.04248141 -0.00035067106
0002a0 83 da d2 3c 73 02 ff bc 49 a1 20 bd ca 57 07 3d
       0.02573896 -0.031129098 -0.039216314 0.033042707
0002b0 21 4a e3 3c 10 80 af 3c 9b ff 75 bd 0d 51 70 3d
       0.027745308 0.02142337 -0.060058217 0.058671046
0002c0 73 9e ea bc e0 1d 44 3d 4e c1 5a 3d aa 5a d2 3c
       -0.028640008 0.047880054 0.053407006 0.025677998
0002d0 8d 8f 87 3d 15 af 2a 3d 61 da 19 3d 64 e5 ed bc
       0.06619177 0.041670877 0.037561778 -0.029040046
0002e0 7a 8d 66 3d 1d 43 09 3b 3d 61 21 3d 3b f8 5f bb
       0.056287266 0.0020944544 0.039399374 -0.0034175056
0002f0 56 93 2c 3d aa 4e 5e 3d 9c 05 15 bd be 48 61 3d
       0.042132698 0.05427424 -0.036382303 0.055001013
000300 c1 a0 28 bd f3 3e 33 bd 71 a4 59 bd f5 df 94 3c
       -0.041168932 -0.043761205 -0.05313534 0.018173197
000310 5d 69 41 bd a1 76 a7 bc 84 a0 8e bc 91 1f 9f 3c
       -0.047219623 -0.020442309 -0.017410524 0.019424232
000320 91 04 80 bd 2a d7 e7 bc bc 50 6b bb a9 b1 ba 3b
       -0.06250871 -0.02830084 -0.0035906276 0.0056974483
000330 a8 be c9 bc 29 ef a0 3c c5 98 33 bd 1c d0 45 bd
       -0.024627045 0.01964529 -0.043846864 -0.04829417
000340 21 a9 20 3b 8c 34 69 bc bb 2f 9d 3d 67 7e c5 bc
       0.0024514871 -0.01423372 0.076751195 -0.024108125
000350 0a 34 03 bc a9 5c d0 bb b5 b7 72 bd 4f 00 8c 3d
       -0.008008013 -0.006358702 -0.059257228 0.06835996
000360 e6 86 f7 bc b8 31 13 bd 68 0b 38 bd 4b ea 11 bc
       -0.030215692 -0.035936087 -0.044932753 -0.008905957
000370 ce 5b c6 bc 80 c0 2c bd 47 28 9c 3c 76 60 fc bb
       -0.024213698 -0.04217577 0.019062174 -0.0077019287
000380 74 ef 81 3d f9 bb 3b 3d d8 90 69 3d d2 d0 9b 3c
       0.063445 0.04583356 0.0570229 0.019020472
000390 41 4e 19 3d 6d c0 81 3d 77 29 4e 3d 63 21 38 bd
       0.037428144 0.063355304 0.050332513 -0.044953715
0003a0 0e 8f 6e bc f8 80 80 bd 91 50 88 3b 4a 83 9e bc
       -0.014560474 -0.06274599 0.004159995 -0.019349713
0003b0 c8 db 5f 3d f0 14 54 3c a4 1f 4e 3b 47 3a 46 bd
       0.05465296 0.012944445 0.0031451965 -0.04839542
0003c0 60 e4 53 bd 2e 01 23 3c 3c 87 1b bd 3a 05 0c bd
       -0.051731467 0.009949012 -0.037970766 -0.034184672
0003d0 35 a2 4a 3d ec a9 ca bc ba 43 05 bd 5a 70 52 3d
       0.0494711 -0.024739228 -0.032535292 0.051376678
0003e0 d5 8d f3 3c ad 1d 08 bd fb eb 83 3b ce fd 08 3d
       0.029730717 -0.033231426 0.004025934 0.033445172
0003f0 4c be 60 bd 6d 5b 37 3c a5 99 be 3c ea ac 1a 3b
       -0.05486898 0.011191231 0.023266623 0.00236016

fc1.bias f4 [120]
000000 ba f9 0f bb e2 2a 0e bd b8 5a 2d 3d b7 e7 6d 3d
       -0.0021968917 -0.034708865 0.042322844 0.05808231
000010 dc 07 89 3d 97 7a 35 3d 4d 86 4b bc 60 c0 06 bd
       0.06690952 0.044306364 -0.0124221565 -0.032898307
000020 28 2e 11 3d 12 6e 6d 3d 51 1c fd bc 44 b8 06 3d
       0.03544441 0.0579663 -0.030897291 0.032890573
000030 58 e1 a3 bc d0 7d 45 bc 31 1a 4e 3d b1 51 85 3d
       -0.020004913 -0.012053922 0.050317947 0.06509722
000040 f9 0f 5b bd d6 79 09 3d 1f b7 53 3d e8 8d 87 3c
       -0.05348203 0.033563457 0.05168831 0.016547158
000050 7f 97 ea 3c d4 b1 df 3c de 6c c0 3b 6e 8a 37 3d
       0.028636692 0.027306475 0.005872353 0.04480975
000060 4a 51 3a bd e5 8b 4a bb 70 75 a3 bc cc 39 1d 3d
       -0.04548768 -0.0030906138 -0.01995346 0.038385198
000070 32 21 03 bd 7b e0 e7 3c 1c d4 db bc 81 f7 45 3d
       -0.03201408 0.028305283 -0.02683454 0.04833174
000080 c8 f6 ce ba 3a 22 12 3c 09 29 e8 3c 46 6e e0 3c
       -0.0015790099 0.008919293 0.02833988 0.027396332
000090 9f 2f f3 3c 9f 45 1d 3d bf aa 6b bc 8d 79 4e bc
       0.029685793 0.038396474 -0.014383971 -0.012602222
0000a0 20 a4 b0 3c 2d b4 7a bd 7e 41 a5 3c d8 4b 00 3d
       0.021562636 -0.061206985 0.02017283 0.03132233
0000b0 e3 29 40 3d 89 fc 55 3d bb 74 0a bd 52 24 3b bd
       0.046914946 0.05224279 -0.03380273 -0.045688935
0000c0 9c 0e c6 bc 84 e0 33 bd fc 8c bf 3b 1a a0 15 3d
       -0.024176888 -0.043915287 0.005845664 0.036529638
0000d0 e2 8b 23 3d b1 54 75 bd af c8 cf 3c 1d 97 fa bc
       0.039928325 -0.05989522 0.025364248 -0.030589635
0000e0 80 4d d8 bc e2 d1 35 bd aa 62 94 bc 70 b0 5d bc
       -0.026404142 -0.044389613 -0.018113453 -0.0135308355
0000f0 5b 09 05 bd 8b d5 4b 3d f0 99 bd bb 17 f7 b8 3c
       -0.032479625 0.049764197 -0.005786173 0.02257876
000100 df a5 1a bc 72 26 25 3d e2 ca 35 bd fd b9 11 bc
       -0.009438961 0.040319867 -0.044382937 -0.008894441
000110 fc 77 0f bd fe 3d 16 bd 82 7f c5 bc 85 e3 7c bd
       -0.035026535 -0.036680214 -0.024108652 -0.061740417
000120 71 d1 8a ba 17 9b 7b bd 0c 4b 08 3c 4d 29 2b 3c
       -0.0010590983 -0.061427202 0.008318674 0.010446859
000130 78 1e 5f 3d 28 09 5b bd 99 11 da 3a aa 56 09 bb
       0.054472417 -0.05347553 0.0016637325 -0.0020956197
000140 0c f8 6e bd 84 99 29 3d 5f 98 eb 3c 14 5b 12 3d
       -0.058342025 0.04140617 0.02875918 0.03573139
000150 31 83 ff bb e7 f4 92 3c b9 ac 28 3d 98 e6 e1 bc
       -0.0077976217 0.017939044 0.041180346 -0.027575776
000160 a3 13 bc 3c 5f 7a 97 3c 6a 87 3b bd 3e 89 e9 bc
       0.022958582 0.018490968 -0.045783438 -0.028507825
000170 af 5c 15 bd d2 26 1d bd 88 b4 3f 3d fd c0 33 bc
       -0.036465343 -0.0383671 0.046803027 -0.010971305
000180 6c e8 ae bc 7e 8f 69 bd 6a c9 66 3d 36 ba 38 3a
       -0.021351062 -0.05702161 0.056344427 0.00070467906
000190 14 cd 47 3d 70 78 59 3d 0e d5 e6 bc 64 7b 26 3b
       0.048779562 0.053093374 -0.028177764 0.0025403136
0001a0 f6 aa 00 3d 2b 9d 61 3d 8b 1c 48 bc 17 d6 98 bc
       0.03141304 0.055081528 -0.012213836 -0.018656773
0001b0 29 c5 8c 3d 1d b3 0d 3d b1 03 03 bd 39 b4 ce 3c
       0.06873543 0.034594644 -0.031985942 0.025232421
0001c0 4b 87 5b bd 65 70 d8 3c 09 0d cb 3c e3 d2 99 bc
       -0.053595822 0.026420781 0.02478649 -0.018777316
0001d0 c1 7d e0 bc 84 3e 1e 3d 5c 2c 1d 3b dc 6d 6b bd
       -0.027403714 0.03863384 0.002398274 -0.057477817

fc2.weight f4 [84, 120]
000000 7d 7e 3a 3d b1 c6 6c 3d 4b 53 d4 bc 44 73 8c 3d
       0.045530785 0.057806674 -0.025918623 0.06857923
000010 1f 4f 8d bd 7b fd d9 3c 65 b0 23 bd 2c 60 a4 bd
       -0.06899857 0.026610127 -0.039963145 -0.08026156
000020 4e 95 0f 3d 67 d9 0c 3e 31 3d cd bd 26 27 8a bd
       0.035054497 0.13754807 -0.10021437 -0.06745748
000030 f9 98 0e bd 02 10 84 bd 97 49 8b 3b 01 f8 d2 3d
       -0.034813855 -0.06448366 0.004250716 0.10301209
000040 6e a5 de 3c 15 d5 33 bd 14 9e 76 bc ba 9c da 3c
       0.027178492 -0.043904383 -0.015052337 0.026686061
000050 ab 3b 74 bd 63 6b a2 bd f5 09 60 3c f9 32 0f 3c
       -0.059627216 -0.07930639 0.013674249 0.00874018
000060 15 dc 59 bd 94 c2 24 bd 64 cc b1 3d b8 da 91 3c
       -0.053188402 -0.040224627 0.086815625 0.017804489
000070 c4 7b 72 3b ea 07 22 bd 2c 35 5f 3d 54 fc ad 3c
       0.003700004 -0.03955833 0.054494068 0.021238483
000080 b2 27 c7 3d 2a 1a b0 bc 02 29 42 bd b6 97 42 3d
       0.09724368 -0.021496851 -0.04740239 0.047507964
000090 05 30 24 bd 81 bb a1 3d 9e 4e 82 bc af 7e a0 3b
       -0.040084857 0.07897092 -0.015906628 0.0048979144
0000a0 60 ec 35 bd aa ad b6 bd a8 23 90 bd a0 7a 05 3d
       -0.044414878 -0.089198425 -0.07038051 0.032587647
0000b0 f3 c5 39 bd b6 f5 66 bc 80 ee c2 bb a6 7c 8f 3c
       -0.045354795 -0.014096668 -0.0059488416 0.017515492
0000c0 e7 f0 c0 bd 98 f5 e6 bc 76 c6 26 3c 3d 12 35 3c
       -0.094209485 -0.02819328 0.010179153 0.011051712
0000d0 98 07 d6 bc 95 a4 af 3d ad a8 73 bc e9 ce a8 3d
       -0.026126668 0.085763134 -0.014871758 0.0824259
0000e0 6b 59 e8 3d 3c 6d 29 3d f1 73 39 3d 5c 31 c7 3d
       0.1134518 0.04136394 0.045276586 0.097262114
0000f0 cc ec 8e bd e9 9d 86 bd 8c 7d d3 3c fc b5 c2 bc
       -0.06978759 -0.06573088 0.025816701 -0.023768418
000100 4d dd 03 bd c0 b6 84 bd cf 35 f2 3c a2 a3 ab 3d
       -0.03219347 -0.06480169 0.029566674 0.0838082
000110 d9 48 23 bd 8e d8 2d 3d 6e 9e 1a 3d b6 e5 21 3c
       -0.039864395 0.04244285 0.037748747 0.0098814275
000120 92 16 4f bd ec 64 98 3d 56 0f 66 3d 95 97 43 bd
       -0.050558634 0.07441124 0.05616697 -0.04775198
000130 d2 8a 86 3d b9 8b 91 3d f4 2e 2c bd 62 9c de bd
       0.065694466 0.07106728 -0.042036965 -0.108696714
000140 b3 ff 06 3d 5d 37 50 3d 2c 0d 2c bb 42 13 b9 3d
       0.032958698 0.05083405 -0.0026252968 0.09036876
000150 c2 17 44 bc f8 9f 29 3a f5 2d 4a 3d ec 9f 2b bc
       -0.011968555 0.00064706756 0.049360234 -0.01047514
000160 47 dc 8e 3d 82 dc a6 3c 2a a0 67 3d c9 4f 5b bc
       0.06975608 0.020368818 0.05654923 -0.0133857215
000170 d5 7b bd bb ed 6f 12 3d 6e ed 70 bd f3 02 88 bc
       -0.005782584 0.035751272 -0.05882018 -0.016602969
000180 e1 df a7 ba 38 15 b4 bc 5f 0a 04 bd c6 fe a6 bd
       -0.001280781 -0.021982774 -0.032236453 -0.08154063
000190 23 b7 ba bc a7 49 b1 3d f3 34 43 bd 67 75 41 3d
       -0.022792405 0.08656626 -0.04765792 0.047231104
0001a0 4f ab be 3d a5 a5 86 3d 03 89 51 3c 7e 15 bf bc
       0.09310018 0.06574563 0.012789014 -0.023325678
0001b0 69 f6 a6 3d 4e 58 37 3d 49 40 c2 bd 0f bc 3e bd
       0.08152468 0.04476195 -0.09484918 -0.046566065
0001c0 89 44 ea bc ab a5 6d bc 9e 9a 47 bd a0 d1 30 3c
       -0.028597133 -0.01450483 -0.04873144 0.010792166
0001d0 e0 fb 1f 3d a8 a2 81 bd c1 0f 46 bd 8b 0d 2a 3d
       0.039058566 -0.06329852 -0.048354868 0.04151682
0001e0 90 5b a2 bd 0a d3 b8 3c 7b d4 60 3d f8 10 ac bd
       -0.079276204 0.022561569 0.054890137 -0.08401674
0001f0 b2 78 89 3c 59 9b c0 3d 59 3a 90 bb 20 15 82 bc
       0.016781185 0.0940463 -0.004401487 -0.015879214
000200 ee b4 86 bd dd 71 01 3d 1f 34 d1 bd 56 69 49 3d
       -0.06577478 0.03160273 -0.102150194 0.04917272
000210 93 25 cb bd 71 af 9c bc a4 be 38 3d 00 19 d2 bb
       -0.09919276 -0.019126626 0.045103684 -0.0064116716
000220 a6 ed 95 3c 37 98 35 3c 84 80 b7 bc 4b fc b5 bc
       0.018301796 0.011083654 -0.022400148 -0.02221503
000230 db 35 ac 3d 0d 87 9f 3c 2e 62 b5 3c 5c d3 00 3d
       0.084087096 0.019473577 0.022141542 0.031451568
000240 f2 5e ff 3c 26 b1 05 3d a8 04 04 bb df 28 ac bc
       0.031173203 0.032639645 -0.0020144377 -0.021015583
000250 25 19 a6 bb 38 19 89 bd 30 93 e4 bb c4 93 b2 bd
       -0.0050689154 -0.06694263 -0.006975554 -0.0871959
000260 02 9c 96 3d c2 d8 3e 3d b6 68 14 3b ab e1 c1 bd
       0.07353975 0.046593435 0.002264542 -0.09466871
000270 46 a2 8a 3c c9 ea 6a 3c 0b 11 56 3c f5 2e ab 3d
       0.016923081 0.014338204 0.013065587 0.08358566
000280 78 24 b8 3d f8 65 f6 3c d0 94 74 3d 95 ba a7 3b
       0.08991331 0.03007792 0.05971223 0.005118678
000290 48 32 8b 3d 4c ff 54 ba 3c 75 95 3c 24 f0 be 3c
       0.067967 -0.00081252004 0.018244378 0.023307867
0002a0 28 fc e1 bc 59 67 bb 3d 9e 2e 9e 3d 07 f5 30 bd
       -0.027586058 0.091505714 0.07723735 -0.043202426
0002b0 b0 07 7d bd d1 fd a3 3d f2 9a 16 3d cf 0a 1b bd
       -0.06177491 0.08007396 0.03676886 -0.037852105
0002c0 0b b0 c3 bd f0 32 e2 bb 70 39 01 3d 44 35 b5 3d
       -0.09555062 -0.006903045 0.031548917 0.0884805
0002d0 70 9a ed 3c d3 75 ee 3b 46 7b a5 3d e2 1d e4 3c
       0.029004306 0.0072772293 0.08080153 0.02784628
0002e0 4f 01 19 3d f3 1b 5e bc 61 54 ac 3d 11 98 18 3d
       0.037354764 -0.013556468 0.084145315 0.037254397
0002f0 0b b4 36 bc 9d 58 01 3d 92 f7 67 bd f0 f7 8e bd
       -0.011151324 0.03157865 -0.056632586 -0.06980884
000300 e7 34 b9 3d 8c 52 84 3d 2b 3d 7d 3c fd c8 91 bd
       0.090432934 0.06461057 0.015456478 -0.071184136
000310 a6 06 cc 3d 30 56 c2 bb 10 aa c1 3c 86 50 d8 bd
       0.099622056 -0.0059306845 0.023640662 -0.105622336
000320 4e cf 8e bc 29 cb ab 3c 80 22 23 bd c2 be f8 3c
       -0.017432835 0.020970898 -0.039827824 0.030364398
000330 5b eb 7b bd f6 e0 87 bd 37 51 9d bd 25 1f 9f 3d
       -0.06150375 -0.06634705 -0.07681506 0.07769612
000340 01 33 ea 3b 31 58 c8 3b 6c 37 a8 3d b4 8e b0 3d
       0.0071471934 0.006114029 0.08213696 0.086209685
000350 07 7a 95 3d 40 16 6b 3d 07 0e b3 bb dc 54 9d 3d
       0.072986655 0.057394266 -0.0054643187 0.07682201
000360 34 c2 46 3d d2 e9 4c 3d 22 8e 6d bd 84 e8 b7 bd
       0.04852505 0.050027676 -0.057996877 -0.08979896
000370 db fd b6 bd f4 2e 72 3d a9 75 a2 3d 6d 55 c8 3d
       -0.08935138 0.05912681 0.07932598 0.09781919
000380 6d 86 ca 3c 32 09 96 3b 56 da 31 bd 96 76 a3 3d
       0.024722302 0.004578733 -0.043421112 0.07981603
000390 50 22 97 3d 79 37 87 3c bc 2a e0 bd 11 29 99 3d
       0.073795915 0.016505944 -0.10945651 0.07478536
0003a0 e3 70 4d bd 28 2a f6 bc 0f a1 b9 3d 16 08 74 bd
       -0.050156485 -0.030049399 0.090639226 -0.059578024
0003b0 27 87 6b 3d 39 50 33 3d c0 3d 15 bd f6 4d b3 bd
       0.05750194 0.04377768 -0.036435843 -0.08755104
0003c0 7f 35 0f bd dc be 6e bd 2d 36 c4 bd ee a9 af 3d
       -0.034963127 -0.058287486 -0.09580646 0.085773334
0003d0 5f 3d d2 bc 06 72 0f bd 5d ca 8b 3d fc 56 90 bc
       -0.02566403 -0.03502085 0.06825707 -0.017619602
0003e0 e0 38 7e bc e2 78 a5 bd 99 d3 b2 3b 32 ab 9c bd
       -0.01551649 -0.08079697 0.0054573533 -0.076498404
0003f0 68 91 8e 3d 2e d3 79 bd 2d 68 eb 3c c0 43 9d bd
       0.06961328 -0.060992412 0.028736198 -0.07678938

fc2.bias f4 [84]
000000 ef 23 5b 3d fc b8 98 3d fb 53 cc 3d 9d 92 62 3d
       0.053501066 0.07457158 0.099769555 0.055315603
000010 10 00 a2 3b 06 4b ea bc 81 1e 63 3d 9f 56 b1 bd
       0.004943855 -0.028600227 0.055449013 -0.086591
000020 87 95 b2 bc a5 20 ba 3d e2 87 48 bd 0a e0 ee 3c
       -0.021799816 0.09088258 -0.048957713 0.029159565
000030 18 a3 27 bd 17 a2 52 3d 09 e7 9d bd 63 e6 58 3c
       -0.040927023 0.051424112 -0.07710082 0.013238522
000040 3f 5e 57 bd 32 94 9a bd 9c ba 36 bd dd b1 cb bd
       -0.052580114 -0.07547797 -0.04461156 -0.09946034
000050 a1 de c1 3d b8 b4 ae 3d bf 4b 6c 3c bb c1 40 bd
       0.09466291 0.08530563 0.014422356 -0.047059756
000060 53 73 ac bd d2 ca ba 3c 30 70 37 bb 2b f2 5d bd
       -0.08420434 0.02280179 -0.0027990453 -0.054186027
000070 67 97 e9 3b ae d6 26 bd b2 87 ca bc ac c6 90 bd
       0.0071286443 -0.04073208 -0.024722908 -0.07069144
000080 d3 25 33 3d 5d aa 53 bd 5f 98 bc 3d 67 05 21 bc
       0.043737244 -0.051676143 0.0920875 -0.009827948
000090 8c 76 eb 3b 77 7f a8 bd 9d 43 3c bc 39 10 94 3d
       0.0071857627 -0.08227437 -0.01149073 0.07229657
0000a0 5b 1e 16 bc 14 98 9c bd 80 a1 01 bd 64 10 52 bd
       -0.009162511 -0.07646194 -0.03164816 -0.051285163
0000b0 e5 46 bf 3c 7d d4 33 bd 07 88 03 3d b5 cb 61 bd
       0.023349235 -0.043903816 0.032112148 -0.05512591
0000c0 e3 d0 07 bd 30 bd a1 3c e9 bf 1f bd 4a b4 1b 3d
       -0.033158194 0.019743532 -0.03900138 0.038013734
0000d0 11 54 6a bd 98 2a b1 bc 07 7c a9 3d 4d 17 49 bd
       -0.05720908 -0.021626756 0.082756095 -0.049094487
0000e0 47 d7 98 bd f7 86 1c bd 04 aa 44 bd ac 2e ba bc
       -0.07462936 -0.03821465 -0.048013702 -0.022727333
0000f0 b2 09 88 3d 4f 74 00 bd c5 5b bb 3d 85 18 b2 3d
       0.06642474 -0.03136092 0.09148363 0.08696083
000100 3e cf 30 3d 8a fe 38 3d 88 d1 89 3c 21 b1 93 bd
       0.04316639 0.045164622 0.016823545 -0.07211519
000110 b9 88 78 3d 04 4e 3e bd ac 2a a3 bd 99 ae b5 3d
       0.060677264 -0.04646112 -0.079671234 0.088711925
000120 44 b0 6b bd ed 40 80 bb 90 9e b5 bd e4 64 ae bd
       -0.057541147 -0.0039139898 -0.08868134 -0.08515337
000130 5a 97 26 3d fb 8d 0c 3d 11 d4 bc 3d 65 34 65 bd
       0.040671684 0.03431509 0.09220136 -0.05595817
000140 50 76 43 bd e2 27 29 bd e8 1b b4 3d 31 2d 78 3d
       -0.047720253 -0.0412978 0.08794385 0.060589973

fc3.weight f4 [10, 84]
000000 f4 ca 26 be c4 2d a8 bd 2b 19 9c bd 96 9e c4 3c
       -0.16288358 -0.08211854 -0.07621988 0.0240014
000010 84 70 80 bd 7a 83 97 bd dc cb b5 bd bb 1c 2b bd
       -0.06271461 -0.07398124 -0.08876774 -0.041775446
000020 6f 09 d0 bd 71 0e 2f be f7 91 cc bd 97 71 25 bd
       -0.10158049 -0.17095353 -0.09988778 -0.04039153
000030 08 3d 02 bd 42 f6 1f 3d bc a7 d7 3d 55 19 6f 3d
       -0.031796485 0.03905321 0.1053004 0.058373768
000040 02 6c e6 bd 5d fa 1c 3c 78 09 3a bc 70 aa 2b 3c
       -0.112510696 0.009581176 -0.011354797 0.010477647
000050 6b 65 41 3d 2c ae 5c bd 65 77 32 3e 27 3a 44 bd
       0.04721586 -0.05387704 0.17428358 -0.04790702
000060 ec 35 8f bd 10 34 96 bd f9 a4 08 be 7b c4 3f 3c
       -0.06992707 -0.07334149 -0.13344182 0.011704559
000070 14 19 14 be b1 5b a8 3d 8d b8 dc bd 3b 36 0e be
       -0.14462692 0.08220614 -0.10777388 -0.13887875
000080 74 9a 1b bd 7a f5 a6 bd 86 4d 39 bc 2b 2a 0f be
       -0.037989095 -0.0815229 -0.011309987 -0.1398093
000090 94 60 f5 3d 1d 23 6d 3a 78 1a fa bc aa 1a 72 bb
       0.119813114 0.0009046065 -0.0305302 -0.0036942163
0000a0 b2 a3 be 3d a4 40 05 bd e9 44 24 bd 91 2a 92 3d
       0.09308566 -0.03253235 -0.04010478 0.07137025
0000b0 02 93 b4 3d ec a3 01 3e d1 e5 f0 bd e2 43 bc bd
       0.08817102 0.12660187 -0.11762584 -0.09192635
0000c0 02 f2 c0 bd be e4 ea bd 72 bb bb bd 8d d3 c2 bc
       -0.09421159 -0.1146941 -0.09166612 -0.023782516
0000d0 92 b3 dc 3c b8 5d 72 3c ab d5 69 3d ff 33 4e bd
       0.026941095 0.014792852 0.057088535 -0.050342556
0000e0 1f aa 7e 3d c1 e0 17 3e 63 62 1e bd 51 96 05 3e
       0.06217396 0.1483183 -0.038668048 0.13045622
0000f0 c4 55 b3 3d 38 89 41 3d 87 2f 00 3e 57 f7 f3 bd
       0.08756593 0.047250003 0.1251813 -0.11912411
000100 5f fc 96 3d e4 8b aa bd be cb b8 3c 01 9e bc 3d
       0.07372355 -0.08327463 0.02255809 0.09209824
000110 65 12 6c bb 6e 12 da bd 03 7f 38 bd 37 36 00 3d
       -0.0036021706 -0.106480464 -0.045043003 0.031301703
000120 5e b1 e3 3d 86 5f c2 3c 6d 23 f2 bc 4e 7d b1 3d
       0.111178145 0.02372719 -0.029557908 0.08666478
000130 a4 bf 0a 3e 82 41 eb bd 29 fd c6 bd 50 21 7b 3d
       0.13549668 -0.11487104 -0.09716255 0.061311066
000140 a7 f7 b6 3d 2c 50 7b 3c 97 10 e0 3d ee c4 d0 bb
       0.08933955 0.015338939 0.10940664 -0.006371132
000150 83 0f 1d bd 11 87 b7 bd f3 e0 47 3e e8 93 c5 bd
       -0.03834487 -0.08961309 0.19519405 -0.096473515
000160 84 20 2f 3e b4 d6 0d be 90 8d 11 3e db 4d 0f 3d
       0.17102247 -0.13851434 0.14214158 0.034986358
000170 09 58 15 be 4e a2 70 bd f4 0c a3 3d c0 0a 14 3e
       -0.14584364 -0.058748536 0.07961455 0.14457226
000180 99 38 63 bc 9c 92 2c be 26 01 ec bd 14 3a 87 bd
       -0.013868474 -0.16852802 -0.115236565 -0.066028744
000190 68 6e bf 3d a0 7c a6 3d 6b 25 db bd 9c ca 9c 3d
       0.0934723 0.08129239 -0.10700496 0.07655832
0001a0 0a 6e 16 3d 8d 7b 53 3e db b3 3e be 16 51 b5 bd
       0.036726035 0.206526 -0.18623297 -0.088533565
0001b0 fa 07 c4 bd a1 ef b4 bd ba 65 3e 3d 13 28 14 3d
       -0.09571834 -0.08834768 0.046483733 0.03617103
0001c0 e7 6f 72 bd 5a 62 84 bd e3 ec 38 3d 46 ab b7 3c
       -0.05918875 -0.064640716 0.045147788 0.022420537
0001d0 0f 62 10 3e bf 94 59 bd f1 ab 14 3e 61 ee 88 3d
       0.14099906 -0.05312037 0.14518715 0.06686092
0001e0 cd b9 25 be 0b d6 c5 bc f0 dd d6 3c ba 02 88 3d
       -0.16184159 -0.024149915 0.026228875 0.06641145
0001f0 3f 58 ab 3c 49 f6 36 bd 99 43 bc bb 6f 80 fd bd
       0.020916102 -0.04466847 -0.005745363 -0.123780124
000200 c5 37 0c 3e 0e f3 fb bd 0b be f9 3d 2f f7 9b 3d
       0.1369315 -0.123022184 0.12194451 0.07615506
000210 2a 10 16 be e4 87 03 3d ef 08 b4 bc 7c 56 eb 3c
       -0.14654604 0.032112017 -0.021976916 0.028727762
000220 1e 95 24 3d 88 ad 8a bd f1 24 4e bd 36 4b 75 bd
       0.04018127 -0.0677138 -0.0503282 -0.05988618
000230 5d 27 13 3d a4 33 c5 bd 6b e1 34 3d 70 67 5e bc
       0.03592621 -0.0962899 0.044160288 -0.013574466
000240 e3 55 6e 3d 78 d2 f1 bd 9f 31 18 be bb 7c e2 3d
       0.058187377 -0.11807722 -0.14862679 0.11058947
000250 e4 47 07 be a8 51 93 3d 37 10 2e be e0 bf 86 bd
       -0.13211018 0.07193309 -0.16998373 -0.06579566
000260 08 f5 4b bd 33 fa d7 bd a8 84 98 3c 29 22 a3 bd
       -0.049794227 -0.105457686 0.018617943 -0.079655
000270 3f 07 9c bd 70 50 4f bd ec 54 0d 3d 79 85 a3 3b
       -0.076185696 -0.05061382 0.034504816 0.0049902764
000280 9c 1a 40 bd ab 42 92 3d 64 33 0d 3e c0 c1 7d bd
       -0.046900377 0.07141622 0.13789135 -0.061952353
000290 ee 43 c9 3d 87 b9 97 3d de a0 c9 bc bc 1d 52 bd
       0.0982741 0.074084334 -0.02461284 -0.05129789
0002a0 d0 4c eb 3d 76 2f de 3c 1d 58 19 be 68 36 7d 3c
       0.1148926 0.02712224 -0.14975019 0.015454866
0002b0 ac 9b a8 3d 71 60 cc 3d 79 56 dc 3d 52 3d 63 bd
       0.08232817 0.09979332 0.10758681 -0.0554784
0002c0 5f ea 7e 3d 57 61 b4 bd 4d d9 a5 bc 6b 73 00 3e
       0.062235232 -0.088076286 -0.020245219 0.12544028
0002d0 77 ec f0 bc b5 69 d6 bd 47 bb b2 bd 6e 0b 0c 3c
       -0.02940963 -0.10469381 -0.087271266 0.008547647
0002e0 1e ab e2 bc 6d fa 4a 3d 9f d4 00 bd 49 6f 8a 3c
       -0.027669486 0.04955523 -0.03145277 0.016898768
0002f0 85 72 fe bd f9 06 0b bd ef 0f 72 3d 95 ba 5b bd
       -0.124241866 -0.033942197 0.059097227 -0.053644735
000300 a5 58 57 bd 42 a6 15 bd ba 3c dd 3c af 82 b4 3d
       -0.052574772 -0.03653551 0.027006496 0.088139884
000310 a5 43 b8 3d 8f a5 19 3d 37 31 71 bd f2 62 0a be
       0.08997277 0.037511405 -0.058884826 -0.13514307
000320 c3 50 27 3e ac 29 a2 3d 19 fa 86 bd 90 94 90 ba
       0.16339402 0.079181045 -0.06590671 -0.0011030603
000330 44 50 d4 3c eb 88 9b 3d 07 c4 e6 bd b3 bf ad bd
       0.02591718 0.075944744 -0.11267858 -0.08483829
000340 56 2c 10 3e 37 17 b4 bd a7 88 9d 3c 7f 9f 49 3d
       0.14079413 -0.087934904 0.0192302 0.049224373
000350 e2 40 dd bd fe af 87 bd 2e 0b d6 bd 2d 17 59 3d
       -0.10803391 -0.06625365 -0.10451351 0.053000618
000360 2b 06 f6 3c ff 96 ba 3d c4 e0 d1 3c 18 91 c9 3c
       0.030032238 0.091108315 0.025619872 0.024605319
000370 de 30 c8 bd c1 53 79 bd 9b ff 8f bd 80 21 4d 3d
       -0.09774946 -0.06087089 -0.07031175 0.050080776
000380 98 db b2 bd 44 64 d3 3c 7f bc 9a bd a9 04 ec bd
       -0.087332904 0.025804646 -0.07555484 -0.11524326
000390 19 be 2a bd d6 e6 f3 bd 9a a6 fc bd 98 04 34 bc
       -0.041685198 -0.11909263 -0.12336464 -0.010987423
0003a0 5e 20 ab bd 16 be 07 bd ea e6 ca bd 0c 4d 10 3e
       -0.08355783 -0.033140264 -0.099073246 0.14091891
0003b0 ae 1c 22 3e 8a a7 af 3d 5f 58 5b bd ab 26 24 3e
       0.15831253 0.085768774 -0.053551074 0.16030376
0003c0 45 f8 f6 3d 40 d3 4d bd 85 ab c6 3d 4f 17 96 bd
       0.120590724 -0.05025029 0.097006835 -0.073286645
0003d0 28 6e bc bd 7d 34 2d 3d 05 14 8d 3d af ca ca 39
       -0.09200698 0.042286385 0.06888584 0.00038679453
0003e0 10 1f d9 bc 43 55 6e 3d 6c 2e a7 bd ee 62 3c 3e
       -0.02650407 0.05818678 -0.08163151 0.18397114
0003f0 92 fc 0d 3e d8 80 ed 3d c6 24 6d bd 2b be d3 3d
       0.13865879 0.115968406 -0.057896398 0.10339006

fc3.bias f4 [10]
000000 ac 2a 54 3d ad 83 23 3e 12 d2 81 3d 79 93 b2 3d
       0.051798508 0.15968199 0.06338896 0.087195344
000010 fb 16 1f bd a0 cb 7e 3c 7e b8 63 bd a8 44 ed 3c
       -0.038840275 0.015551478 -0.055595867 0.028963402
000020 50 fe af bd 08 73 f3 3c
       -0.08593428 0.029717937
